{"name": "chess_model", "layers": [{"name": "input_1", "config": {"sparse": false, "dtype": "float32", "name": "input_1", "batch_input_shape": [null, 14, 10, 9]}, "inbound_nodes": [], "class_name": "InputLayer"}, {"name": "input_conv-5-256", "config": {"name": "input_conv-5-256", "activation": "linear", "strides": [1, 1], "dilation_rate": [1, 1], "padding": "same", "kernel_initializer": {"config": {"mode": "fan_avg", "distribution": "uniform", "seed": null, "scale": 1.0}, "class_name": "VarianceScaling"}, "kernel_constraint": null, "bias_initializer": {"config": {}, "class_name": "Zeros"}, "activity_regularizer": null, "use_bias": false, "kernel_regularizer": {"config": {"l2": 9.999999747378752e-05, "l1": 0.0}, "class_name": "L1L2"}, "bias_regularizer": null, "bias_constraint": null, "filters": 256, "kernel_size": [5, 5], "data_format": "channels_first", "trainable": true}, "inbound_nodes": [[["input_1", 0, 0, {}]]], "class_name": "Conv2D"}, {"name": "input_batchnorm", "config": {"name": "input_batchnorm", "axis": 1, "beta_initializer": {"config": {}, "class_name": "Zeros"}, "moving_variance_initializer": {"config": {}, "class_name": "Ones"}, "gamma_initializer": {"config": {}, "class_name": "Ones"}, "gamma_constraint": null, "epsilon": 0.001, "center": true, "momentum": 0.99, "scale": true, "gamma_regularizer": null, "beta_constraint": null, "moving_mean_initializer": {"config": {}, "class_name": "Zeros"}, "beta_regularizer": null, "trainable": true}, "inbound_nodes": [[["input_conv-5-256", 0, 0, {}]]], "class_name": "BatchNormalization"}, {"name": "input_relu", "config": {"name": "input_relu", "activation": "relu", "trainable": true}, "inbound_nodes": [[["input_batchnorm", 0, 0, {}]]], "class_name": "Activation"}, {"name": "res1_conv1-3-256", "config": {"name": "res1_conv1-3-256", "activation": "linear", "strides": [1, 1], "dilation_rate": [1, 1], "padding": "same", "kernel_initializer": {"config": {"mode": "fan_avg", "distribution": "uniform", "seed": null, "scale": 1.0}, "class_name": "VarianceScaling"}, "kernel_constraint": null, "bias_initializer": {"config": {}, "class_name": "Zeros"}, "activity_regularizer": null, "use_bias": false, "kernel_regularizer": {"config": {"l2": 9.999999747378752e-05, "l1": 0.0}, "class_name": "L1L2"}, "bias_regularizer": null, "bias_constraint": null, "filters": 256, "kernel_size": [3, 3], "data_format": "channels_first", "trainable": true}, "inbound_nodes": [[["input_relu", 0, 0, {}]]], "class_name": "Conv2D"}, {"name": "res1_batchnorm1", "config": {"name": "res1_batchnorm1", "axis": 1, "beta_initializer": {"config": {}, "class_name": "Zeros"}, "moving_variance_initializer": {"config": {}, "class_name": "Ones"}, "gamma_initializer": {"config": {}, "class_name": "Ones"}, "gamma_constraint": null, "epsilon": 0.001, "center": true, "momentum": 0.99, "scale": true, "gamma_regularizer": null, "beta_constraint": null, "moving_mean_initializer": {"config": {}, "class_name": "Zeros"}, "beta_regularizer": null, "trainable": true}, "inbound_nodes": [[["res1_conv1-3-256", 0, 0, {}]]], "class_name": "BatchNormalization"}, {"name": "res1_relu1", "config": {"name": "res1_relu1", "activation": "relu", "trainable": true}, "inbound_nodes": [[["res1_batchnorm1", 0, 0, {}]]], "class_name": "Activation"}, {"name": "res1_conv2-3-256", "config": {"name": "res1_conv2-3-256", "activation": "linear", "strides": [1, 1], "dilation_rate": [1, 1], "padding": "same", "kernel_initializer": {"config": {"mode": "fan_avg", "distribution": "uniform", "seed": null, "scale": 1.0}, "class_name": "VarianceScaling"}, "kernel_constraint": null, "bias_initializer": {"config": {}, "class_name": "Zeros"}, "activity_regularizer": null, "use_bias": false, "kernel_regularizer": {"config": {"l2": 9.999999747378752e-05, "l1": 0.0}, "class_name": "L1L2"}, "bias_regularizer": null, "bias_constraint": null, "filters": 256, "kernel_size": [3, 3], "data_format": "channels_first", "trainable": true}, "inbound_nodes": [[["res1_relu1", 0, 0, {}]]], "class_name": "Conv2D"}, {"name": "res1_batchnorm2", "config": {"name": "res1_batchnorm2", "axis": 1, "beta_initializer": {"config": {}, "class_name": "Zeros"}, "moving_variance_initializer": {"config": {}, "class_name": "Ones"}, "gamma_initializer": {"config": {}, "class_name": "Ones"}, "gamma_constraint": null, "epsilon": 0.001, "center": true, "momentum": 0.99, "scale": true, "gamma_regularizer": null, "beta_constraint": null, "moving_mean_initializer": {"config": {}, "class_name": "Zeros"}, "beta_regularizer": null, "trainable": true}, "inbound_nodes": [[["res1_conv2-3-256", 0, 0, {}]]], "class_name": "BatchNormalization"}, {"name": "res1_add", "config": {"name": "res1_add", "trainable": true}, "inbound_nodes": [[["input_relu", 0, 0, {}], ["res1_batchnorm2", 0, 0, {}]]], "class_name": "Add"}, {"name": "res1_relu2", "config": {"name": "res1_relu2", "activation": "relu", "trainable": true}, "inbound_nodes": [[["res1_add", 0, 0, {}]]], "class_name": "Activation"}, {"name": "res2_conv1-3-256", "config": {"name": "res2_conv1-3-256", "activation": "linear", "strides": [1, 1], "dilation_rate": [1, 1], "padding": "same", "kernel_initializer": {"config": {"mode": "fan_avg", "distribution": "uniform", "seed": null, "scale": 1.0}, "class_name": "VarianceScaling"}, "kernel_constraint": null, "bias_initializer": {"config": {}, "class_name": "Zeros"}, "activity_regularizer": null, "use_bias": false, "kernel_regularizer": {"config": {"l2": 9.999999747378752e-05, "l1": 0.0}, "class_name": "L1L2"}, "bias_regularizer": null, "bias_constraint": null, "filters": 256, "kernel_size": [3, 3], "data_format": "channels_first", "trainable": true}, "inbound_nodes": [[["res1_relu2", 0, 0, {}]]], "class_name": "Conv2D"}, {"name": "res2_batchnorm1", "config": {"name": "res2_batchnorm1", "axis": 1, "beta_initializer": {"config": {}, "class_name": "Zeros"}, "moving_variance_initializer": {"config": {}, "class_name": "Ones"}, "gamma_initializer": {"config": {}, "class_name": "Ones"}, "gamma_constraint": null, "epsilon": 0.001, "center": true, "momentum": 0.99, "scale": true, "gamma_regularizer": null, "beta_constraint": null, "moving_mean_initializer": {"config": {}, "class_name": "Zeros"}, "beta_regularizer": null, "trainable": true}, "inbound_nodes": [[["res2_conv1-3-256", 0, 0, {}]]], "class_name": "BatchNormalization"}, {"name": "res2_relu1", "config": {"name": "res2_relu1", "activation": "relu", "trainable": true}, "inbound_nodes": [[["res2_batchnorm1", 0, 0, {}]]], "class_name": "Activation"}, {"name": "res2_conv2-3-256", "config": {"name": "res2_conv2-3-256", "activation": "linear", "strides": [1, 1], "dilation_rate": [1, 1], "padding": "same", "kernel_initializer": {"config": {"mode": "fan_avg", "distribution": "uniform", "seed": null, "scale": 1.0}, "class_name": "VarianceScaling"}, "kernel_constraint": null, "bias_initializer": {"config": {}, "class_name": "Zeros"}, "activity_regularizer": null, "use_bias": false, "kernel_regularizer": {"config": {"l2": 9.999999747378752e-05, "l1": 0.0}, "class_name": "L1L2"}, "bias_regularizer": null, "bias_constraint": null, "filters": 256, "kernel_size": [3, 3], "data_format": "channels_first", "trainable": true}, "inbound_nodes": [[["res2_relu1", 0, 0, {}]]], "class_name": "Conv2D"}, {"name": "res2_batchnorm2", "config": {"name": "res2_batchnorm2", "axis": 1, "beta_initializer": {"config": {}, "class_name": "Zeros"}, "moving_variance_initializer": {"config": {}, "class_name": "Ones"}, "gamma_initializer": {"config": {}, "class_name": "Ones"}, "gamma_constraint": null, "epsilon": 0.001, "center": true, "momentum": 0.99, "scale": true, "gamma_regularizer": null, "beta_constraint": null, "moving_mean_initializer": {"config": {}, "class_name": "Zeros"}, "beta_regularizer": null, "trainable": true}, "inbound_nodes": [[["res2_conv2-3-256", 0, 0, {}]]], "class_name": "BatchNormalization"}, {"name": "res2_add", "config": {"name": "res2_add", "trainable": true}, "inbound_nodes": [[["res1_relu2", 0, 0, {}], ["res2_batchnorm2", 0, 0, {}]]], "class_name": "Add"}, {"name": "res2_relu2", "config": {"name": "res2_relu2", "activation": "relu", "trainable": true}, "inbound_nodes": [[["res2_add", 0, 0, {}]]], "class_name": "Activation"}, {"name": "res3_conv1-3-256", "config": {"name": "res3_conv1-3-256", "activation": "linear", "strides": [1, 1], "dilation_rate": [1, 1], "padding": "same", "kernel_initializer": {"config": {"mode": "fan_avg", "distribution": "uniform", "seed": null, "scale": 1.0}, "class_name": "VarianceScaling"}, "kernel_constraint": null, "bias_initializer": {"config": {}, "class_name": "Zeros"}, "activity_regularizer": null, "use_bias": false, "kernel_regularizer": {"config": {"l2": 9.999999747378752e-05, "l1": 0.0}, "class_name": "L1L2"}, "bias_regularizer": null, "bias_constraint": null, "filters": 256, "kernel_size": [3, 3], "data_format": "channels_first", "trainable": true}, "inbound_nodes": [[["res2_relu2", 0, 0, {}]]], "class_name": "Conv2D"}, {"name": "res3_batchnorm1", "config": {"name": "res3_batchnorm1", "axis": 1, "beta_initializer": {"config": {}, "class_name": "Zeros"}, "moving_variance_initializer": {"config": {}, "class_name": "Ones"}, "gamma_initializer": {"config": {}, "class_name": "Ones"}, "gamma_constraint": null, "epsilon": 0.001, "center": true, "momentum": 0.99, "scale": true, "gamma_regularizer": null, "beta_constraint": null, "moving_mean_initializer": {"config": {}, "class_name": "Zeros"}, "beta_regularizer": null, "trainable": true}, "inbound_nodes": [[["res3_conv1-3-256", 0, 0, {}]]], "class_name": "BatchNormalization"}, {"name": "res3_relu1", "config": {"name": "res3_relu1", "activation": "relu", "trainable": true}, "inbound_nodes": [[["res3_batchnorm1", 0, 0, {}]]], "class_name": "Activation"}, {"name": "res3_conv2-3-256", "config": {"name": "res3_conv2-3-256", "activation": "linear", "strides": [1, 1], "dilation_rate": [1, 1], "padding": "same", "kernel_initializer": {"config": {"mode": "fan_avg", "distribution": "uniform", "seed": null, "scale": 1.0}, "class_name": "VarianceScaling"}, "kernel_constraint": null, "bias_initializer": {"config": {}, "class_name": "Zeros"}, "activity_regularizer": null, "use_bias": false, "kernel_regularizer": {"config": {"l2": 9.999999747378752e-05, "l1": 0.0}, "class_name": "L1L2"}, "bias_regularizer": null, "bias_constraint": null, "filters": 256, "kernel_size": [3, 3], "data_format": "channels_first", "trainable": true}, "inbound_nodes": [[["res3_relu1", 0, 0, {}]]], "class_name": "Conv2D"}, {"name": "res3_batchnorm2", "config": {"name": "res3_batchnorm2", "axis": 1, "beta_initializer": {"config": {}, "class_name": "Zeros"}, "moving_variance_initializer": {"config": {}, "class_name": "Ones"}, "gamma_initializer": {"config": {}, "class_name": "Ones"}, "gamma_constraint": null, "epsilon": 0.001, "center": true, "momentum": 0.99, "scale": true, "gamma_regularizer": null, "beta_constraint": null, "moving_mean_initializer": {"config": {}, "class_name": "Zeros"}, "beta_regularizer": null, "trainable": true}, "inbound_nodes": [[["res3_conv2-3-256", 0, 0, {}]]], "class_name": "BatchNormalization"}, {"name": "res3_add", "config": {"name": "res3_add", "trainable": true}, "inbound_nodes": [[["res2_relu2", 0, 0, {}], ["res3_batchnorm2", 0, 0, {}]]], "class_name": "Add"}, {"name": "res3_relu2", "config": {"name": "res3_relu2", "activation": "relu", "trainable": true}, "inbound_nodes": [[["res3_add", 0, 0, {}]]], "class_name": "Activation"}, {"name": "res4_conv1-3-256", "config": {"name": "res4_conv1-3-256", "activation": "linear", "strides": [1, 1], "dilation_rate": [1, 1], "padding": "same", "kernel_initializer": {"config": {"mode": "fan_avg", "distribution": "uniform", "seed": null, "scale": 1.0}, "class_name": "VarianceScaling"}, "kernel_constraint": null, "bias_initializer": {"config": {}, "class_name": "Zeros"}, "activity_regularizer": null, "use_bias": false, "kernel_regularizer": {"config": {"l2": 9.999999747378752e-05, "l1": 0.0}, "class_name": "L1L2"}, "bias_regularizer": null, "bias_constraint": null, "filters": 256, "kernel_size": [3, 3], "data_format": "channels_first", "trainable": true}, "inbound_nodes": [[["res3_relu2", 0, 0, {}]]], "class_name": "Conv2D"}, {"name": "res4_batchnorm1", "config": {"name": "res4_batchnorm1", "axis": 1, "beta_initializer": {"config": {}, "class_name": "Zeros"}, "moving_variance_initializer": {"config": {}, "class_name": "Ones"}, "gamma_initializer": {"config": {}, "class_name": "Ones"}, "gamma_constraint": null, "epsilon": 0.001, "center": true, "momentum": 0.99, "scale": true, "gamma_regularizer": null, "beta_constraint": null, "moving_mean_initializer": {"config": {}, "class_name": "Zeros"}, "beta_regularizer": null, "trainable": true}, "inbound_nodes": [[["res4_conv1-3-256", 0, 0, {}]]], "class_name": "BatchNormalization"}, {"name": "res4_relu1", "config": {"name": "res4_relu1", "activation": "relu", "trainable": true}, "inbound_nodes": [[["res4_batchnorm1", 0, 0, {}]]], "class_name": "Activation"}, {"name": "res4_conv2-3-256", "config": {"name": "res4_conv2-3-256", "activation": "linear", "strides": [1, 1], "dilation_rate": [1, 1], "padding": "same", "kernel_initializer": {"config": {"mode": "fan_avg", "distribution": "uniform", "seed": null, "scale": 1.0}, "class_name": "VarianceScaling"}, "kernel_constraint": null, "bias_initializer": {"config": {}, "class_name": "Zeros"}, "activity_regularizer": null, "use_bias": false, "kernel_regularizer": {"config": {"l2": 9.999999747378752e-05, "l1": 0.0}, "class_name": "L1L2"}, "bias_regularizer": null, "bias_constraint": null, "filters": 256, "kernel_size": [3, 3], "data_format": "channels_first", "trainable": true}, "inbound_nodes": [[["res4_relu1", 0, 0, {}]]], "class_name": "Conv2D"}, {"name": "res4_batchnorm2", "config": {"name": "res4_batchnorm2", "axis": 1, "beta_initializer": {"config": {}, "class_name": "Zeros"}, "moving_variance_initializer": {"config": {}, "class_name": "Ones"}, "gamma_initializer": {"config": {}, "class_name": "Ones"}, "gamma_constraint": null, "epsilon": 0.001, "center": true, "momentum": 0.99, "scale": true, "gamma_regularizer": null, "beta_constraint": null, "moving_mean_initializer": {"config": {}, "class_name": "Zeros"}, "beta_regularizer": null, "trainable": true}, "inbound_nodes": [[["res4_conv2-3-256", 0, 0, {}]]], "class_name": "BatchNormalization"}, {"name": "res4_add", "config": {"name": "res4_add", "trainable": true}, "inbound_nodes": [[["res3_relu2", 0, 0, {}], ["res4_batchnorm2", 0, 0, {}]]], "class_name": "Add"}, {"name": "res4_relu2", "config": {"name": "res4_relu2", "activation": "relu", "trainable": true}, "inbound_nodes": [[["res4_add", 0, 0, {}]]], "class_name": "Activation"}, {"name": "res5_conv1-3-256", "config": {"name": "res5_conv1-3-256", "activation": "linear", "strides": [1, 1], "dilation_rate": [1, 1], "padding": "same", "kernel_initializer": {"config": {"mode": "fan_avg", "distribution": "uniform", "seed": null, "scale": 1.0}, "class_name": "VarianceScaling"}, "kernel_constraint": null, "bias_initializer": {"config": {}, "class_name": "Zeros"}, "activity_regularizer": null, "use_bias": false, "kernel_regularizer": {"config": {"l2": 9.999999747378752e-05, "l1": 0.0}, "class_name": "L1L2"}, "bias_regularizer": null, "bias_constraint": null, "filters": 256, "kernel_size": [3, 3], "data_format": "channels_first", "trainable": true}, "inbound_nodes": [[["res4_relu2", 0, 0, {}]]], "class_name": "Conv2D"}, {"name": "res5_batchnorm1", "config": {"name": "res5_batchnorm1", "axis": 1, "beta_initializer": {"config": {}, "class_name": "Zeros"}, "moving_variance_initializer": {"config": {}, "class_name": "Ones"}, "gamma_initializer": {"config": {}, "class_name": "Ones"}, "gamma_constraint": null, "epsilon": 0.001, "center": true, "momentum": 0.99, "scale": true, "gamma_regularizer": null, "beta_constraint": null, "moving_mean_initializer": {"config": {}, "class_name": "Zeros"}, "beta_regularizer": null, "trainable": true}, "inbound_nodes": [[["res5_conv1-3-256", 0, 0, {}]]], "class_name": "BatchNormalization"}, {"name": "res5_relu1", "config": {"name": "res5_relu1", "activation": "relu", "trainable": true}, "inbound_nodes": [[["res5_batchnorm1", 0, 0, {}]]], "class_name": "Activation"}, {"name": "res5_conv2-3-256", "config": {"name": "res5_conv2-3-256", "activation": "linear", "strides": [1, 1], "dilation_rate": [1, 1], "padding": "same", "kernel_initializer": {"config": {"mode": "fan_avg", "distribution": "uniform", "seed": null, "scale": 1.0}, "class_name": "VarianceScaling"}, "kernel_constraint": null, "bias_initializer": {"config": {}, "class_name": "Zeros"}, "activity_regularizer": null, "use_bias": false, "kernel_regularizer": {"config": {"l2": 9.999999747378752e-05, "l1": 0.0}, "class_name": "L1L2"}, "bias_regularizer": null, "bias_constraint": null, "filters": 256, "kernel_size": [3, 3], "data_format": "channels_first", "trainable": true}, "inbound_nodes": [[["res5_relu1", 0, 0, {}]]], "class_name": "Conv2D"}, {"name": "res5_batchnorm2", "config": {"name": "res5_batchnorm2", "axis": 1, "beta_initializer": {"config": {}, "class_name": "Zeros"}, "moving_variance_initializer": {"config": {}, "class_name": "Ones"}, "gamma_initializer": {"config": {}, "class_name": "Ones"}, "gamma_constraint": null, "epsilon": 0.001, "center": true, "momentum": 0.99, "scale": true, "gamma_regularizer": null, "beta_constraint": null, "moving_mean_initializer": {"config": {}, "class_name": "Zeros"}, "beta_regularizer": null, "trainable": true}, "inbound_nodes": [[["res5_conv2-3-256", 0, 0, {}]]], "class_name": "BatchNormalization"}, {"name": "res5_add", "config": {"name": "res5_add", "trainable": true}, "inbound_nodes": [[["res4_relu2", 0, 0, {}], ["res5_batchnorm2", 0, 0, {}]]], "class_name": "Add"}, {"name": "res5_relu2", "config": {"name": "res5_relu2", "activation": "relu", "trainable": true}, "inbound_nodes": [[["res5_add", 0, 0, {}]]], "class_name": "Activation"}, {"name": "res6_conv1-3-256", "config": {"name": "res6_conv1-3-256", "activation": "linear", "strides": [1, 1], "dilation_rate": [1, 1], "padding": "same", "kernel_initializer": {"config": {"mode": "fan_avg", "distribution": "uniform", "seed": null, "scale": 1.0}, "class_name": "VarianceScaling"}, "kernel_constraint": null, "bias_initializer": {"config": {}, "class_name": "Zeros"}, "activity_regularizer": null, "use_bias": false, "kernel_regularizer": {"config": {"l2": 9.999999747378752e-05, "l1": 0.0}, "class_name": "L1L2"}, "bias_regularizer": null, "bias_constraint": null, "filters": 256, "kernel_size": [3, 3], "data_format": "channels_first", "trainable": true}, "inbound_nodes": [[["res5_relu2", 0, 0, {}]]], "class_name": "Conv2D"}, {"name": "res6_batchnorm1", "config": {"name": "res6_batchnorm1", "axis": 1, "beta_initializer": {"config": {}, "class_name": "Zeros"}, "moving_variance_initializer": {"config": {}, "class_name": "Ones"}, "gamma_initializer": {"config": {}, "class_name": "Ones"}, "gamma_constraint": null, "epsilon": 0.001, "center": true, "momentum": 0.99, "scale": true, "gamma_regularizer": null, "beta_constraint": null, "moving_mean_initializer": {"config": {}, "class_name": "Zeros"}, "beta_regularizer": null, "trainable": true}, "inbound_nodes": [[["res6_conv1-3-256", 0, 0, {}]]], "class_name": "BatchNormalization"}, {"name": "res6_relu1", "config": {"name": "res6_relu1", "activation": "relu", "trainable": true}, "inbound_nodes": [[["res6_batchnorm1", 0, 0, {}]]], "class_name": "Activation"}, {"name": "res6_conv2-3-256", "config": {"name": "res6_conv2-3-256", "activation": "linear", "strides": [1, 1], "dilation_rate": [1, 1], "padding": "same", "kernel_initializer": {"config": {"mode": "fan_avg", "distribution": "uniform", "seed": null, "scale": 1.0}, "class_name": "VarianceScaling"}, "kernel_constraint": null, "bias_initializer": {"config": {}, "class_name": "Zeros"}, "activity_regularizer": null, "use_bias": false, "kernel_regularizer": {"config": {"l2": 9.999999747378752e-05, "l1": 0.0}, "class_name": "L1L2"}, "bias_regularizer": null, "bias_constraint": null, "filters": 256, "kernel_size": [3, 3], "data_format": "channels_first", "trainable": true}, "inbound_nodes": [[["res6_relu1", 0, 0, {}]]], "class_name": "Conv2D"}, {"name": "res6_batchnorm2", "config": {"name": "res6_batchnorm2", "axis": 1, "beta_initializer": {"config": {}, "class_name": "Zeros"}, "moving_variance_initializer": {"config": {}, "class_name": "Ones"}, "gamma_initializer": {"config": {}, "class_name": "Ones"}, "gamma_constraint": null, "epsilon": 0.001, "center": true, "momentum": 0.99, "scale": true, "gamma_regularizer": null, "beta_constraint": null, "moving_mean_initializer": {"config": {}, "class_name": "Zeros"}, "beta_regularizer": null, "trainable": true}, "inbound_nodes": [[["res6_conv2-3-256", 0, 0, {}]]], "class_name": "BatchNormalization"}, {"name": "res6_add", "config": {"name": "res6_add", "trainable": true}, "inbound_nodes": [[["res5_relu2", 0, 0, {}], ["res6_batchnorm2", 0, 0, {}]]], "class_name": "Add"}, {"name": "res6_relu2", "config": {"name": "res6_relu2", "activation": "relu", "trainable": true}, "inbound_nodes": [[["res6_add", 0, 0, {}]]], "class_name": "Activation"}, {"name": "res7_conv1-3-256", "config": {"name": "res7_conv1-3-256", "activation": "linear", "strides": [1, 1], "dilation_rate": [1, 1], "padding": "same", "kernel_initializer": {"config": {"mode": "fan_avg", "distribution": "uniform", "seed": null, "scale": 1.0}, "class_name": "VarianceScaling"}, "kernel_constraint": null, "bias_initializer": {"config": {}, "class_name": "Zeros"}, "activity_regularizer": null, "use_bias": false, "kernel_regularizer": {"config": {"l2": 9.999999747378752e-05, "l1": 0.0}, "class_name": "L1L2"}, "bias_regularizer": null, "bias_constraint": null, "filters": 256, "kernel_size": [3, 3], "data_format": "channels_first", "trainable": true}, "inbound_nodes": [[["res6_relu2", 0, 0, {}]]], "class_name": "Conv2D"}, {"name": "res7_batchnorm1", "config": {"name": "res7_batchnorm1", "axis": 1, "beta_initializer": {"config": {}, "class_name": "Zeros"}, "moving_variance_initializer": {"config": {}, "class_name": "Ones"}, "gamma_initializer": {"config": {}, "class_name": "Ones"}, "gamma_constraint": null, "epsilon": 0.001, "center": true, "momentum": 0.99, "scale": true, "gamma_regularizer": null, "beta_constraint": null, "moving_mean_initializer": {"config": {}, "class_name": "Zeros"}, "beta_regularizer": null, "trainable": true}, "inbound_nodes": [[["res7_conv1-3-256", 0, 0, {}]]], "class_name": "BatchNormalization"}, {"name": "res7_relu1", "config": {"name": "res7_relu1", "activation": "relu", "trainable": true}, "inbound_nodes": [[["res7_batchnorm1", 0, 0, {}]]], "class_name": "Activation"}, {"name": "res7_conv2-3-256", "config": {"name": "res7_conv2-3-256", "activation": "linear", "strides": [1, 1], "dilation_rate": [1, 1], "padding": "same", "kernel_initializer": {"config": {"mode": "fan_avg", "distribution": "uniform", "seed": null, "scale": 1.0}, "class_name": "VarianceScaling"}, "kernel_constraint": null, "bias_initializer": {"config": {}, "class_name": "Zeros"}, "activity_regularizer": null, "use_bias": false, "kernel_regularizer": {"config": {"l2": 9.999999747378752e-05, "l1": 0.0}, "class_name": "L1L2"}, "bias_regularizer": null, "bias_constraint": null, "filters": 256, "kernel_size": [3, 3], "data_format": "channels_first", "trainable": true}, "inbound_nodes": [[["res7_relu1", 0, 0, {}]]], "class_name": "Conv2D"}, {"name": "res7_batchnorm2", "config": {"name": "res7_batchnorm2", "axis": 1, "beta_initializer": {"config": {}, "class_name": "Zeros"}, "moving_variance_initializer": {"config": {}, "class_name": "Ones"}, "gamma_initializer": {"config": {}, "class_name": "Ones"}, "gamma_constraint": null, "epsilon": 0.001, "center": true, "momentum": 0.99, "scale": true, "gamma_regularizer": null, "beta_constraint": null, "moving_mean_initializer": {"config": {}, "class_name": "Zeros"}, "beta_regularizer": null, "trainable": true}, "inbound_nodes": [[["res7_conv2-3-256", 0, 0, {}]]], "class_name": "BatchNormalization"}, {"name": "res7_add", "config": {"name": "res7_add", "trainable": true}, "inbound_nodes": [[["res6_relu2", 0, 0, {}], ["res7_batchnorm2", 0, 0, {}]]], "class_name": "Add"}, {"name": "res7_relu2", "config": {"name": "res7_relu2", "activation": "relu", "trainable": true}, "inbound_nodes": [[["res7_add", 0, 0, {}]]], "class_name": "Activation"}, {"name": "value_conv-1-4", "config": {"name": "value_conv-1-4", "activation": "linear", "strides": [1, 1], "dilation_rate": [1, 1], "padding": "valid", "kernel_initializer": {"config": {"mode": "fan_avg", "distribution": "uniform", "seed": null, "scale": 1.0}, "class_name": "VarianceScaling"}, "kernel_constraint": null, "bias_initializer": {"config": {}, "class_name": "Zeros"}, "activity_regularizer": null, "use_bias": false, "kernel_regularizer": {"config": {"l2": 9.999999747378752e-05, "l1": 0.0}, "class_name": "L1L2"}, "bias_regularizer": null, "bias_constraint": null, "filters": 4, "kernel_size": [1, 1], "data_format": "channels_first", "trainable": true}, "inbound_nodes": [[["res7_relu2", 0, 0, {}]]], "class_name": "Conv2D"}, {"name": "policy_conv-1-2", "config": {"name": "policy_conv-1-2", "activation": "linear", "strides": [1, 1], "dilation_rate": [1, 1], "padding": "valid", "kernel_initializer": {"config": {"mode": "fan_avg", "distribution": "uniform", "seed": null, "scale": 1.0}, "class_name": "VarianceScaling"}, "kernel_constraint": null, "bias_initializer": {"config": {}, "class_name": "Zeros"}, "activity_regularizer": null, "use_bias": false, "kernel_regularizer": {"config": {"l2": 9.999999747378752e-05, "l1": 0.0}, "class_name": "L1L2"}, "bias_regularizer": null, "bias_constraint": null, "filters": 2, "kernel_size": [1, 1], "data_format": "channels_first", "trainable": true}, "inbound_nodes": [[["res7_relu2", 0, 0, {}]]], "class_name": "Conv2D"}, {"name": "value_batchnorm", "config": {"name": "value_batchnorm", "axis": 1, "beta_initializer": {"config": {}, "class_name": "Zeros"}, "moving_variance_initializer": {"config": {}, "class_name": "Ones"}, "gamma_initializer": {"config": {}, "class_name": "Ones"}, "gamma_constraint": null, "epsilon": 0.001, "center": true, "momentum": 0.99, "scale": true, "gamma_regularizer": null, "beta_constraint": null, "moving_mean_initializer": {"config": {}, "class_name": "Zeros"}, "beta_regularizer": null, "trainable": true}, "inbound_nodes": [[["value_conv-1-4", 0, 0, {}]]], "class_name": "BatchNormalization"}, {"name": "policy_batchnorm", "config": {"name": "policy_batchnorm", "axis": 1, "beta_initializer": {"config": {}, "class_name": "Zeros"}, "moving_variance_initializer": {"config": {}, "class_name": "Ones"}, "gamma_initializer": {"config": {}, "class_name": "Ones"}, "gamma_constraint": null, "epsilon": 0.001, "center": true, "momentum": 0.99, "scale": true, "gamma_regularizer": null, "beta_constraint": null, "moving_mean_initializer": {"config": {}, "class_name": "Zeros"}, "beta_regularizer": null, "trainable": true}, "inbound_nodes": [[["policy_conv-1-2", 0, 0, {}]]], "class_name": "BatchNormalization"}, {"name": "value_relu", "config": {"name": "value_relu", "activation": "relu", "trainable": true}, "inbound_nodes": [[["value_batchnorm", 0, 0, {}]]], "class_name": "Activation"}, {"name": "policy_relu", "config": {"name": "policy_relu", "activation": "relu", "trainable": true}, "inbound_nodes": [[["policy_batchnorm", 0, 0, {}]]], "class_name": "Activation"}, {"name": "value_flatten", "config": {"name": "value_flatten", "trainable": true}, "inbound_nodes": [[["value_relu", 0, 0, {}]]], "class_name": "Flatten"}, {"name": "policy_flatten", "config": {"name": "policy_flatten", "trainable": true}, "inbound_nodes": [[["policy_relu", 0, 0, {}]]], "class_name": "Flatten"}, {"name": "value_dense", "config": {"name": "value_dense", "activation": "relu", "kernel_initializer": {"config": {"mode": "fan_avg", "distribution": "uniform", "seed": null, "scale": 1.0}, "class_name": "VarianceScaling"}, "bias_regularizer": null, "kernel_constraint": null, "bias_initializer": {"config": {}, "class_name": "Zeros"}, "activity_regularizer": null, "use_bias": true, "units": 256, "kernel_regularizer": {"config": {"l2": 9.999999747378752e-05, "l1": 0.0}, "class_name": "L1L2"}, "bias_constraint": null, "trainable": true}, "inbound_nodes": [[["value_flatten", 0, 0, {}]]], "class_name": "Dense"}, {"name": "policy_out", "config": {"name": "policy_out", "activation": "softmax", "kernel_initializer": {"config": {"mode": "fan_avg", "distribution": "uniform", "seed": null, "scale": 1.0}, "class_name": "VarianceScaling"}, "bias_regularizer": null, "kernel_constraint": null, "bias_initializer": {"config": {}, "class_name": "Zeros"}, "activity_regularizer": null, "use_bias": true, "units": 2086, "kernel_regularizer": {"config": {"l2": 9.999999747378752e-05, "l1": 0.0}, "class_name": "L1L2"}, "bias_constraint": null, "trainable": true}, "inbound_nodes": [[["policy_flatten", 0, 0, {}]]], "class_name": "Dense"}, {"name": "value_out", "config": {"name": "value_out", "activation": "tanh", "kernel_initializer": {"config": {"mode": "fan_avg", "distribution": "uniform", "seed": null, "scale": 1.0}, "class_name": "VarianceScaling"}, "bias_regularizer": null, "kernel_constraint": null, "bias_initializer": {"config": {}, "class_name": "Zeros"}, "activity_regularizer": null, "use_bias": true, "units": 1, "kernel_regularizer": {"config": {"l2": 9.999999747378752e-05, "l1": 0.0}, "class_name": "L1L2"}, "bias_constraint": null, "trainable": true}, "inbound_nodes": [[["value_dense", 0, 0, {}]]], "class_name": "Dense"}], "input_layers": [["input_1", 0, 0]], "output_layers": [["policy_out", 0, 0], ["value_out", 0, 0]]}