{"name": "chess_model", "layers": [{"name": "input_1", "class_name": "InputLayer", "config": {"name": "input_1", "sparse": false, "batch_input_shape": [null, 14, 10, 9], "dtype": "float32"}, "inbound_nodes": []}, {"name": "input_conv-5-256", "class_name": "Conv2D", "config": {"activity_regularizer": null, "kernel_constraint": null, "filters": 256, "activation": "linear", "kernel_size": [5, 5], "data_format": "channels_first", "bias_constraint": null, "kernel_initializer": {"class_name": "VarianceScaling", "config": {"scale": 1.0, "mode": "fan_avg", "seed": null, "distribution": "uniform"}}, "kernel_regularizer": {"class_name": "L1L2", "config": {"l1": 0.0, "l2": 9.999999747378752e-05}}, "name": "input_conv-5-256", "bias_regularizer": null, "dilation_rate": [1, 1], "padding": "same", "bias_initializer": {"class_name": "Zeros", "config": {}}, "trainable": true, "use_bias": false, "strides": [1, 1]}, "inbound_nodes": [[["input_1", 0, 0, {}]]]}, {"name": "input_batchnorm", "class_name": "BatchNormalization", "config": {"center": true, "moving_variance_initializer": {"class_name": "Ones", "config": {}}, "trainable": true, "beta_constraint": null, "scale": true, "beta_regularizer": null, "gamma_constraint": null, "name": "input_batchnorm", "momentum": 0.99, "gamma_initializer": {"class_name": "Ones", "config": {}}, "beta_initializer": {"class_name": "Zeros", "config": {}}, "axis": 1, "gamma_regularizer": null, "epsilon": 0.001, "moving_mean_initializer": {"class_name": "Zeros", "config": {}}}, "inbound_nodes": [[["input_conv-5-256", 0, 0, {}]]]}, {"name": "input_relu", "class_name": "Activation", "config": {"name": "input_relu", "trainable": true, "activation": "relu"}, "inbound_nodes": [[["input_batchnorm", 0, 0, {}]]]}, {"name": "res1_conv1-3-256", "class_name": "Conv2D", "config": {"activity_regularizer": null, "kernel_constraint": null, "filters": 256, "activation": "linear", "kernel_size": [3, 3], "data_format": "channels_first", "bias_constraint": null, "kernel_initializer": {"class_name": "VarianceScaling", "config": {"scale": 1.0, "mode": "fan_avg", "seed": null, "distribution": "uniform"}}, "kernel_regularizer": {"class_name": "L1L2", "config": {"l1": 0.0, "l2": 9.999999747378752e-05}}, "name": "res1_conv1-3-256", "bias_regularizer": null, "dilation_rate": [1, 1], "padding": "same", "bias_initializer": {"class_name": "Zeros", "config": {}}, "trainable": true, "use_bias": false, "strides": [1, 1]}, "inbound_nodes": [[["input_relu", 0, 0, {}]]]}, {"name": "res1_batchnorm1", "class_name": "BatchNormalization", "config": {"center": true, "moving_variance_initializer": {"class_name": "Ones", "config": {}}, "trainable": true, "beta_constraint": null, "scale": true, "beta_regularizer": null, "gamma_constraint": null, "name": "res1_batchnorm1", "momentum": 0.99, "gamma_initializer": {"class_name": "Ones", "config": {}}, "beta_initializer": {"class_name": "Zeros", "config": {}}, "axis": 1, "gamma_regularizer": null, "epsilon": 0.001, "moving_mean_initializer": {"class_name": "Zeros", "config": {}}}, "inbound_nodes": [[["res1_conv1-3-256", 0, 0, {}]]]}, {"name": "res1_relu1", "class_name": "Activation", "config": {"name": "res1_relu1", "trainable": true, "activation": "relu"}, "inbound_nodes": [[["res1_batchnorm1", 0, 0, {}]]]}, {"name": "res1_conv2-3-256", "class_name": "Conv2D", "config": {"activity_regularizer": null, "kernel_constraint": null, "filters": 256, "activation": "linear", "kernel_size": [3, 3], "data_format": "channels_first", "bias_constraint": null, "kernel_initializer": {"class_name": "VarianceScaling", "config": {"scale": 1.0, "mode": "fan_avg", "seed": null, "distribution": "uniform"}}, "kernel_regularizer": {"class_name": "L1L2", "config": {"l1": 0.0, "l2": 9.999999747378752e-05}}, "name": "res1_conv2-3-256", "bias_regularizer": null, "dilation_rate": [1, 1], "padding": "same", "bias_initializer": {"class_name": "Zeros", "config": {}}, "trainable": true, "use_bias": false, "strides": [1, 1]}, "inbound_nodes": [[["res1_relu1", 0, 0, {}]]]}, {"name": "res1_batchnorm2", "class_name": "BatchNormalization", "config": {"center": true, "moving_variance_initializer": {"class_name": "Ones", "config": {}}, "trainable": true, "beta_constraint": null, "scale": true, "beta_regularizer": null, "gamma_constraint": null, "name": "res1_batchnorm2", "momentum": 0.99, "gamma_initializer": {"class_name": "Ones", "config": {}}, "beta_initializer": {"class_name": "Zeros", "config": {}}, "axis": 1, "gamma_regularizer": null, "epsilon": 0.001, "moving_mean_initializer": {"class_name": "Zeros", "config": {}}}, "inbound_nodes": [[["res1_conv2-3-256", 0, 0, {}]]]}, {"name": "res1_add", "class_name": "Add", "config": {"name": "res1_add", "trainable": true}, "inbound_nodes": [[["input_relu", 0, 0, {}], ["res1_batchnorm2", 0, 0, {}]]]}, {"name": "res1_relu2", "class_name": "Activation", "config": {"name": "res1_relu2", "trainable": true, "activation": "relu"}, "inbound_nodes": [[["res1_add", 0, 0, {}]]]}, {"name": "res2_conv1-3-256", "class_name": "Conv2D", "config": {"activity_regularizer": null, "kernel_constraint": null, "filters": 256, "activation": "linear", "kernel_size": [3, 3], "data_format": "channels_first", "bias_constraint": null, "kernel_initializer": {"class_name": "VarianceScaling", "config": {"scale": 1.0, "mode": "fan_avg", "seed": null, "distribution": "uniform"}}, "kernel_regularizer": {"class_name": "L1L2", "config": {"l1": 0.0, "l2": 9.999999747378752e-05}}, "name": "res2_conv1-3-256", "bias_regularizer": null, "dilation_rate": [1, 1], "padding": "same", "bias_initializer": {"class_name": "Zeros", "config": {}}, "trainable": true, "use_bias": false, "strides": [1, 1]}, "inbound_nodes": [[["res1_relu2", 0, 0, {}]]]}, {"name": "res2_batchnorm1", "class_name": "BatchNormalization", "config": {"center": true, "moving_variance_initializer": {"class_name": "Ones", "config": {}}, "trainable": true, "beta_constraint": null, "scale": true, "beta_regularizer": null, "gamma_constraint": null, "name": "res2_batchnorm1", "momentum": 0.99, "gamma_initializer": {"class_name": "Ones", "config": {}}, "beta_initializer": {"class_name": "Zeros", "config": {}}, "axis": 1, "gamma_regularizer": null, "epsilon": 0.001, "moving_mean_initializer": {"class_name": "Zeros", "config": {}}}, "inbound_nodes": [[["res2_conv1-3-256", 0, 0, {}]]]}, {"name": "res2_relu1", "class_name": "Activation", "config": {"name": "res2_relu1", "trainable": true, "activation": "relu"}, "inbound_nodes": [[["res2_batchnorm1", 0, 0, {}]]]}, {"name": "res2_conv2-3-256", "class_name": "Conv2D", "config": {"activity_regularizer": null, "kernel_constraint": null, "filters": 256, "activation": "linear", "kernel_size": [3, 3], "data_format": "channels_first", "bias_constraint": null, "kernel_initializer": {"class_name": "VarianceScaling", "config": {"scale": 1.0, "mode": "fan_avg", "seed": null, "distribution": "uniform"}}, "kernel_regularizer": {"class_name": "L1L2", "config": {"l1": 0.0, "l2": 9.999999747378752e-05}}, "name": "res2_conv2-3-256", "bias_regularizer": null, "dilation_rate": [1, 1], "padding": "same", "bias_initializer": {"class_name": "Zeros", "config": {}}, "trainable": true, "use_bias": false, "strides": [1, 1]}, "inbound_nodes": [[["res2_relu1", 0, 0, {}]]]}, {"name": "res2_batchnorm2", "class_name": "BatchNormalization", "config": {"center": true, "moving_variance_initializer": {"class_name": "Ones", "config": {}}, "trainable": true, "beta_constraint": null, "scale": true, "beta_regularizer": null, "gamma_constraint": null, "name": "res2_batchnorm2", "momentum": 0.99, "gamma_initializer": {"class_name": "Ones", "config": {}}, "beta_initializer": {"class_name": "Zeros", "config": {}}, "axis": 1, "gamma_regularizer": null, "epsilon": 0.001, "moving_mean_initializer": {"class_name": "Zeros", "config": {}}}, "inbound_nodes": [[["res2_conv2-3-256", 0, 0, {}]]]}, {"name": "res2_add", "class_name": "Add", "config": {"name": "res2_add", "trainable": true}, "inbound_nodes": [[["res1_relu2", 0, 0, {}], ["res2_batchnorm2", 0, 0, {}]]]}, {"name": "res2_relu2", "class_name": "Activation", "config": {"name": "res2_relu2", "trainable": true, "activation": "relu"}, "inbound_nodes": [[["res2_add", 0, 0, {}]]]}, {"name": "res3_conv1-3-256", "class_name": "Conv2D", "config": {"activity_regularizer": null, "kernel_constraint": null, "filters": 256, "activation": "linear", "kernel_size": [3, 3], "data_format": "channels_first", "bias_constraint": null, "kernel_initializer": {"class_name": "VarianceScaling", "config": {"scale": 1.0, "mode": "fan_avg", "seed": null, "distribution": "uniform"}}, "kernel_regularizer": {"class_name": "L1L2", "config": {"l1": 0.0, "l2": 9.999999747378752e-05}}, "name": "res3_conv1-3-256", "bias_regularizer": null, "dilation_rate": [1, 1], "padding": "same", "bias_initializer": {"class_name": "Zeros", "config": {}}, "trainable": true, "use_bias": false, "strides": [1, 1]}, "inbound_nodes": [[["res2_relu2", 0, 0, {}]]]}, {"name": "res3_batchnorm1", "class_name": "BatchNormalization", "config": {"center": true, "moving_variance_initializer": {"class_name": "Ones", "config": {}}, "trainable": true, "beta_constraint": null, "scale": true, "beta_regularizer": null, "gamma_constraint": null, "name": "res3_batchnorm1", "momentum": 0.99, "gamma_initializer": {"class_name": "Ones", "config": {}}, "beta_initializer": {"class_name": "Zeros", "config": {}}, "axis": 1, "gamma_regularizer": null, "epsilon": 0.001, "moving_mean_initializer": {"class_name": "Zeros", "config": {}}}, "inbound_nodes": [[["res3_conv1-3-256", 0, 0, {}]]]}, {"name": "res3_relu1", "class_name": "Activation", "config": {"name": "res3_relu1", "trainable": true, "activation": "relu"}, "inbound_nodes": [[["res3_batchnorm1", 0, 0, {}]]]}, {"name": "res3_conv2-3-256", "class_name": "Conv2D", "config": {"activity_regularizer": null, "kernel_constraint": null, "filters": 256, "activation": "linear", "kernel_size": [3, 3], "data_format": "channels_first", "bias_constraint": null, "kernel_initializer": {"class_name": "VarianceScaling", "config": {"scale": 1.0, "mode": "fan_avg", "seed": null, "distribution": "uniform"}}, "kernel_regularizer": {"class_name": "L1L2", "config": {"l1": 0.0, "l2": 9.999999747378752e-05}}, "name": "res3_conv2-3-256", "bias_regularizer": null, "dilation_rate": [1, 1], "padding": "same", "bias_initializer": {"class_name": "Zeros", "config": {}}, "trainable": true, "use_bias": false, "strides": [1, 1]}, "inbound_nodes": [[["res3_relu1", 0, 0, {}]]]}, {"name": "res3_batchnorm2", "class_name": "BatchNormalization", "config": {"center": true, "moving_variance_initializer": {"class_name": "Ones", "config": {}}, "trainable": true, "beta_constraint": null, "scale": true, "beta_regularizer": null, "gamma_constraint": null, "name": "res3_batchnorm2", "momentum": 0.99, "gamma_initializer": {"class_name": "Ones", "config": {}}, "beta_initializer": {"class_name": "Zeros", "config": {}}, "axis": 1, "gamma_regularizer": null, "epsilon": 0.001, "moving_mean_initializer": {"class_name": "Zeros", "config": {}}}, "inbound_nodes": [[["res3_conv2-3-256", 0, 0, {}]]]}, {"name": "res3_add", "class_name": "Add", "config": {"name": "res3_add", "trainable": true}, "inbound_nodes": [[["res2_relu2", 0, 0, {}], ["res3_batchnorm2", 0, 0, {}]]]}, {"name": "res3_relu2", "class_name": "Activation", "config": {"name": "res3_relu2", "trainable": true, "activation": "relu"}, "inbound_nodes": [[["res3_add", 0, 0, {}]]]}, {"name": "res4_conv1-3-256", "class_name": "Conv2D", "config": {"activity_regularizer": null, "kernel_constraint": null, "filters": 256, "activation": "linear", "kernel_size": [3, 3], "data_format": "channels_first", "bias_constraint": null, "kernel_initializer": {"class_name": "VarianceScaling", "config": {"scale": 1.0, "mode": "fan_avg", "seed": null, "distribution": "uniform"}}, "kernel_regularizer": {"class_name": "L1L2", "config": {"l1": 0.0, "l2": 9.999999747378752e-05}}, "name": "res4_conv1-3-256", "bias_regularizer": null, "dilation_rate": [1, 1], "padding": "same", "bias_initializer": {"class_name": "Zeros", "config": {}}, "trainable": true, "use_bias": false, "strides": [1, 1]}, "inbound_nodes": [[["res3_relu2", 0, 0, {}]]]}, {"name": "res4_batchnorm1", "class_name": "BatchNormalization", "config": {"center": true, "moving_variance_initializer": {"class_name": "Ones", "config": {}}, "trainable": true, "beta_constraint": null, "scale": true, "beta_regularizer": null, "gamma_constraint": null, "name": "res4_batchnorm1", "momentum": 0.99, "gamma_initializer": {"class_name": "Ones", "config": {}}, "beta_initializer": {"class_name": "Zeros", "config": {}}, "axis": 1, "gamma_regularizer": null, "epsilon": 0.001, "moving_mean_initializer": {"class_name": "Zeros", "config": {}}}, "inbound_nodes": [[["res4_conv1-3-256", 0, 0, {}]]]}, {"name": "res4_relu1", "class_name": "Activation", "config": {"name": "res4_relu1", "trainable": true, "activation": "relu"}, "inbound_nodes": [[["res4_batchnorm1", 0, 0, {}]]]}, {"name": "res4_conv2-3-256", "class_name": "Conv2D", "config": {"activity_regularizer": null, "kernel_constraint": null, "filters": 256, "activation": "linear", "kernel_size": [3, 3], "data_format": "channels_first", "bias_constraint": null, "kernel_initializer": {"class_name": "VarianceScaling", "config": {"scale": 1.0, "mode": "fan_avg", "seed": null, "distribution": "uniform"}}, "kernel_regularizer": {"class_name": "L1L2", "config": {"l1": 0.0, "l2": 9.999999747378752e-05}}, "name": "res4_conv2-3-256", "bias_regularizer": null, "dilation_rate": [1, 1], "padding": "same", "bias_initializer": {"class_name": "Zeros", "config": {}}, "trainable": true, "use_bias": false, "strides": [1, 1]}, "inbound_nodes": [[["res4_relu1", 0, 0, {}]]]}, {"name": "res4_batchnorm2", "class_name": "BatchNormalization", "config": {"center": true, "moving_variance_initializer": {"class_name": "Ones", "config": {}}, "trainable": true, "beta_constraint": null, "scale": true, "beta_regularizer": null, "gamma_constraint": null, "name": "res4_batchnorm2", "momentum": 0.99, "gamma_initializer": {"class_name": "Ones", "config": {}}, "beta_initializer": {"class_name": "Zeros", "config": {}}, "axis": 1, "gamma_regularizer": null, "epsilon": 0.001, "moving_mean_initializer": {"class_name": "Zeros", "config": {}}}, "inbound_nodes": [[["res4_conv2-3-256", 0, 0, {}]]]}, {"name": "res4_add", "class_name": "Add", "config": {"name": "res4_add", "trainable": true}, "inbound_nodes": [[["res3_relu2", 0, 0, {}], ["res4_batchnorm2", 0, 0, {}]]]}, {"name": "res4_relu2", "class_name": "Activation", "config": {"name": "res4_relu2", "trainable": true, "activation": "relu"}, "inbound_nodes": [[["res4_add", 0, 0, {}]]]}, {"name": "res5_conv1-3-256", "class_name": "Conv2D", "config": {"activity_regularizer": null, "kernel_constraint": null, "filters": 256, "activation": "linear", "kernel_size": [3, 3], "data_format": "channels_first", "bias_constraint": null, "kernel_initializer": {"class_name": "VarianceScaling", "config": {"scale": 1.0, "mode": "fan_avg", "seed": null, "distribution": "uniform"}}, "kernel_regularizer": {"class_name": "L1L2", "config": {"l1": 0.0, "l2": 9.999999747378752e-05}}, "name": "res5_conv1-3-256", "bias_regularizer": null, "dilation_rate": [1, 1], "padding": "same", "bias_initializer": {"class_name": "Zeros", "config": {}}, "trainable": true, "use_bias": false, "strides": [1, 1]}, "inbound_nodes": [[["res4_relu2", 0, 0, {}]]]}, {"name": "res5_batchnorm1", "class_name": "BatchNormalization", "config": {"center": true, "moving_variance_initializer": {"class_name": "Ones", "config": {}}, "trainable": true, "beta_constraint": null, "scale": true, "beta_regularizer": null, "gamma_constraint": null, "name": "res5_batchnorm1", "momentum": 0.99, "gamma_initializer": {"class_name": "Ones", "config": {}}, "beta_initializer": {"class_name": "Zeros", "config": {}}, "axis": 1, "gamma_regularizer": null, "epsilon": 0.001, "moving_mean_initializer": {"class_name": "Zeros", "config": {}}}, "inbound_nodes": [[["res5_conv1-3-256", 0, 0, {}]]]}, {"name": "res5_relu1", "class_name": "Activation", "config": {"name": "res5_relu1", "trainable": true, "activation": "relu"}, "inbound_nodes": [[["res5_batchnorm1", 0, 0, {}]]]}, {"name": "res5_conv2-3-256", "class_name": "Conv2D", "config": {"activity_regularizer": null, "kernel_constraint": null, "filters": 256, "activation": "linear", "kernel_size": [3, 3], "data_format": "channels_first", "bias_constraint": null, "kernel_initializer": {"class_name": "VarianceScaling", "config": {"scale": 1.0, "mode": "fan_avg", "seed": null, "distribution": "uniform"}}, "kernel_regularizer": {"class_name": "L1L2", "config": {"l1": 0.0, "l2": 9.999999747378752e-05}}, "name": "res5_conv2-3-256", "bias_regularizer": null, "dilation_rate": [1, 1], "padding": "same", "bias_initializer": {"class_name": "Zeros", "config": {}}, "trainable": true, "use_bias": false, "strides": [1, 1]}, "inbound_nodes": [[["res5_relu1", 0, 0, {}]]]}, {"name": "res5_batchnorm2", "class_name": "BatchNormalization", "config": {"center": true, "moving_variance_initializer": {"class_name": "Ones", "config": {}}, "trainable": true, "beta_constraint": null, "scale": true, "beta_regularizer": null, "gamma_constraint": null, "name": "res5_batchnorm2", "momentum": 0.99, "gamma_initializer": {"class_name": "Ones", "config": {}}, "beta_initializer": {"class_name": "Zeros", "config": {}}, "axis": 1, "gamma_regularizer": null, "epsilon": 0.001, "moving_mean_initializer": {"class_name": "Zeros", "config": {}}}, "inbound_nodes": [[["res5_conv2-3-256", 0, 0, {}]]]}, {"name": "res5_add", "class_name": "Add", "config": {"name": "res5_add", "trainable": true}, "inbound_nodes": [[["res4_relu2", 0, 0, {}], ["res5_batchnorm2", 0, 0, {}]]]}, {"name": "res5_relu2", "class_name": "Activation", "config": {"name": "res5_relu2", "trainable": true, "activation": "relu"}, "inbound_nodes": [[["res5_add", 0, 0, {}]]]}, {"name": "res6_conv1-3-256", "class_name": "Conv2D", "config": {"activity_regularizer": null, "kernel_constraint": null, "filters": 256, "activation": "linear", "kernel_size": [3, 3], "data_format": "channels_first", "bias_constraint": null, "kernel_initializer": {"class_name": "VarianceScaling", "config": {"scale": 1.0, "mode": "fan_avg", "seed": null, "distribution": "uniform"}}, "kernel_regularizer": {"class_name": "L1L2", "config": {"l1": 0.0, "l2": 9.999999747378752e-05}}, "name": "res6_conv1-3-256", "bias_regularizer": null, "dilation_rate": [1, 1], "padding": "same", "bias_initializer": {"class_name": "Zeros", "config": {}}, "trainable": true, "use_bias": false, "strides": [1, 1]}, "inbound_nodes": [[["res5_relu2", 0, 0, {}]]]}, {"name": "res6_batchnorm1", "class_name": "BatchNormalization", "config": {"center": true, "moving_variance_initializer": {"class_name": "Ones", "config": {}}, "trainable": true, "beta_constraint": null, "scale": true, "beta_regularizer": null, "gamma_constraint": null, "name": "res6_batchnorm1", "momentum": 0.99, "gamma_initializer": {"class_name": "Ones", "config": {}}, "beta_initializer": {"class_name": "Zeros", "config": {}}, "axis": 1, "gamma_regularizer": null, "epsilon": 0.001, "moving_mean_initializer": {"class_name": "Zeros", "config": {}}}, "inbound_nodes": [[["res6_conv1-3-256", 0, 0, {}]]]}, {"name": "res6_relu1", "class_name": "Activation", "config": {"name": "res6_relu1", "trainable": true, "activation": "relu"}, "inbound_nodes": [[["res6_batchnorm1", 0, 0, {}]]]}, {"name": "res6_conv2-3-256", "class_name": "Conv2D", "config": {"activity_regularizer": null, "kernel_constraint": null, "filters": 256, "activation": "linear", "kernel_size": [3, 3], "data_format": "channels_first", "bias_constraint": null, "kernel_initializer": {"class_name": "VarianceScaling", "config": {"scale": 1.0, "mode": "fan_avg", "seed": null, "distribution": "uniform"}}, "kernel_regularizer": {"class_name": "L1L2", "config": {"l1": 0.0, "l2": 9.999999747378752e-05}}, "name": "res6_conv2-3-256", "bias_regularizer": null, "dilation_rate": [1, 1], "padding": "same", "bias_initializer": {"class_name": "Zeros", "config": {}}, "trainable": true, "use_bias": false, "strides": [1, 1]}, "inbound_nodes": [[["res6_relu1", 0, 0, {}]]]}, {"name": "res6_batchnorm2", "class_name": "BatchNormalization", "config": {"center": true, "moving_variance_initializer": {"class_name": "Ones", "config": {}}, "trainable": true, "beta_constraint": null, "scale": true, "beta_regularizer": null, "gamma_constraint": null, "name": "res6_batchnorm2", "momentum": 0.99, "gamma_initializer": {"class_name": "Ones", "config": {}}, "beta_initializer": {"class_name": "Zeros", "config": {}}, "axis": 1, "gamma_regularizer": null, "epsilon": 0.001, "moving_mean_initializer": {"class_name": "Zeros", "config": {}}}, "inbound_nodes": [[["res6_conv2-3-256", 0, 0, {}]]]}, {"name": "res6_add", "class_name": "Add", "config": {"name": "res6_add", "trainable": true}, "inbound_nodes": [[["res5_relu2", 0, 0, {}], ["res6_batchnorm2", 0, 0, {}]]]}, {"name": "res6_relu2", "class_name": "Activation", "config": {"name": "res6_relu2", "trainable": true, "activation": "relu"}, "inbound_nodes": [[["res6_add", 0, 0, {}]]]}, {"name": "res7_conv1-3-256", "class_name": "Conv2D", "config": {"activity_regularizer": null, "kernel_constraint": null, "filters": 256, "activation": "linear", "kernel_size": [3, 3], "data_format": "channels_first", "bias_constraint": null, "kernel_initializer": {"class_name": "VarianceScaling", "config": {"scale": 1.0, "mode": "fan_avg", "seed": null, "distribution": "uniform"}}, "kernel_regularizer": {"class_name": "L1L2", "config": {"l1": 0.0, "l2": 9.999999747378752e-05}}, "name": "res7_conv1-3-256", "bias_regularizer": null, "dilation_rate": [1, 1], "padding": "same", "bias_initializer": {"class_name": "Zeros", "config": {}}, "trainable": true, "use_bias": false, "strides": [1, 1]}, "inbound_nodes": [[["res6_relu2", 0, 0, {}]]]}, {"name": "res7_batchnorm1", "class_name": "BatchNormalization", "config": {"center": true, "moving_variance_initializer": {"class_name": "Ones", "config": {}}, "trainable": true, "beta_constraint": null, "scale": true, "beta_regularizer": null, "gamma_constraint": null, "name": "res7_batchnorm1", "momentum": 0.99, "gamma_initializer": {"class_name": "Ones", "config": {}}, "beta_initializer": {"class_name": "Zeros", "config": {}}, "axis": 1, "gamma_regularizer": null, "epsilon": 0.001, "moving_mean_initializer": {"class_name": "Zeros", "config": {}}}, "inbound_nodes": [[["res7_conv1-3-256", 0, 0, {}]]]}, {"name": "res7_relu1", "class_name": "Activation", "config": {"name": "res7_relu1", "trainable": true, "activation": "relu"}, "inbound_nodes": [[["res7_batchnorm1", 0, 0, {}]]]}, {"name": "res7_conv2-3-256", "class_name": "Conv2D", "config": {"activity_regularizer": null, "kernel_constraint": null, "filters": 256, "activation": "linear", "kernel_size": [3, 3], "data_format": "channels_first", "bias_constraint": null, "kernel_initializer": {"class_name": "VarianceScaling", "config": {"scale": 1.0, "mode": "fan_avg", "seed": null, "distribution": "uniform"}}, "kernel_regularizer": {"class_name": "L1L2", "config": {"l1": 0.0, "l2": 9.999999747378752e-05}}, "name": "res7_conv2-3-256", "bias_regularizer": null, "dilation_rate": [1, 1], "padding": "same", "bias_initializer": {"class_name": "Zeros", "config": {}}, "trainable": true, "use_bias": false, "strides": [1, 1]}, "inbound_nodes": [[["res7_relu1", 0, 0, {}]]]}, {"name": "res7_batchnorm2", "class_name": "BatchNormalization", "config": {"center": true, "moving_variance_initializer": {"class_name": "Ones", "config": {}}, "trainable": true, "beta_constraint": null, "scale": true, "beta_regularizer": null, "gamma_constraint": null, "name": "res7_batchnorm2", "momentum": 0.99, "gamma_initializer": {"class_name": "Ones", "config": {}}, "beta_initializer": {"class_name": "Zeros", "config": {}}, "axis": 1, "gamma_regularizer": null, "epsilon": 0.001, "moving_mean_initializer": {"class_name": "Zeros", "config": {}}}, "inbound_nodes": [[["res7_conv2-3-256", 0, 0, {}]]]}, {"name": "res7_add", "class_name": "Add", "config": {"name": "res7_add", "trainable": true}, "inbound_nodes": [[["res6_relu2", 0, 0, {}], ["res7_batchnorm2", 0, 0, {}]]]}, {"name": "res7_relu2", "class_name": "Activation", "config": {"name": "res7_relu2", "trainable": true, "activation": "relu"}, "inbound_nodes": [[["res7_add", 0, 0, {}]]]}, {"name": "value_conv-1-4", "class_name": "Conv2D", "config": {"activity_regularizer": null, "kernel_constraint": null, "filters": 4, "activation": "linear", "kernel_size": [1, 1], "data_format": "channels_first", "bias_constraint": null, "kernel_initializer": {"class_name": "VarianceScaling", "config": {"scale": 1.0, "mode": "fan_avg", "seed": null, "distribution": "uniform"}}, "kernel_regularizer": {"class_name": "L1L2", "config": {"l1": 0.0, "l2": 9.999999747378752e-05}}, "name": "value_conv-1-4", "bias_regularizer": null, "dilation_rate": [1, 1], "padding": "valid", "bias_initializer": {"class_name": "Zeros", "config": {}}, "trainable": true, "use_bias": false, "strides": [1, 1]}, "inbound_nodes": [[["res7_relu2", 0, 0, {}]]]}, {"name": "policy_conv-1-2", "class_name": "Conv2D", "config": {"activity_regularizer": null, "kernel_constraint": null, "filters": 2, "activation": "linear", "kernel_size": [1, 1], "data_format": "channels_first", "bias_constraint": null, "kernel_initializer": {"class_name": "VarianceScaling", "config": {"scale": 1.0, "mode": "fan_avg", "seed": null, "distribution": "uniform"}}, "kernel_regularizer": {"class_name": "L1L2", "config": {"l1": 0.0, "l2": 9.999999747378752e-05}}, "name": "policy_conv-1-2", "bias_regularizer": null, "dilation_rate": [1, 1], "padding": "valid", "bias_initializer": {"class_name": "Zeros", "config": {}}, "trainable": true, "use_bias": false, "strides": [1, 1]}, "inbound_nodes": [[["res7_relu2", 0, 0, {}]]]}, {"name": "value_batchnorm", "class_name": "BatchNormalization", "config": {"center": true, "moving_variance_initializer": {"class_name": "Ones", "config": {}}, "trainable": true, "beta_constraint": null, "scale": true, "beta_regularizer": null, "gamma_constraint": null, "name": "value_batchnorm", "momentum": 0.99, "gamma_initializer": {"class_name": "Ones", "config": {}}, "beta_initializer": {"class_name": "Zeros", "config": {}}, "axis": 1, "gamma_regularizer": null, "epsilon": 0.001, "moving_mean_initializer": {"class_name": "Zeros", "config": {}}}, "inbound_nodes": [[["value_conv-1-4", 0, 0, {}]]]}, {"name": "policy_batchnorm", "class_name": "BatchNormalization", "config": {"center": true, "moving_variance_initializer": {"class_name": "Ones", "config": {}}, "trainable": true, "beta_constraint": null, "scale": true, "beta_regularizer": null, "gamma_constraint": null, "name": "policy_batchnorm", "momentum": 0.99, "gamma_initializer": {"class_name": "Ones", "config": {}}, "beta_initializer": {"class_name": "Zeros", "config": {}}, "axis": 1, "gamma_regularizer": null, "epsilon": 0.001, "moving_mean_initializer": {"class_name": "Zeros", "config": {}}}, "inbound_nodes": [[["policy_conv-1-2", 0, 0, {}]]]}, {"name": "value_relu", "class_name": "Activation", "config": {"name": "value_relu", "trainable": true, "activation": "relu"}, "inbound_nodes": [[["value_batchnorm", 0, 0, {}]]]}, {"name": "policy_relu", "class_name": "Activation", "config": {"name": "policy_relu", "trainable": true, "activation": "relu"}, "inbound_nodes": [[["policy_batchnorm", 0, 0, {}]]]}, {"name": "value_flatten", "class_name": "Flatten", "config": {"name": "value_flatten", "trainable": true}, "inbound_nodes": [[["value_relu", 0, 0, {}]]]}, {"name": "policy_flatten", "class_name": "Flatten", "config": {"name": "policy_flatten", "trainable": true}, "inbound_nodes": [[["policy_relu", 0, 0, {}]]]}, {"name": "value_dense", "class_name": "Dense", "config": {"activity_regularizer": null, "kernel_constraint": null, "activation": "relu", "units": 256, "use_bias": true, "bias_constraint": null, "kernel_initializer": {"class_name": "VarianceScaling", "config": {"scale": 1.0, "mode": "fan_avg", "seed": null, "distribution": "uniform"}}, "kernel_regularizer": {"class_name": "L1L2", "config": {"l1": 0.0, "l2": 9.999999747378752e-05}}, "name": "value_dense", "bias_regularizer": null, "bias_initializer": {"class_name": "Zeros", "config": {}}, "trainable": true}, "inbound_nodes": [[["value_flatten", 0, 0, {}]]]}, {"name": "policy_out", "class_name": "Dense", "config": {"activity_regularizer": null, "kernel_constraint": null, "activation": "softmax", "units": 2086, "use_bias": true, "bias_constraint": null, "kernel_initializer": {"class_name": "VarianceScaling", "config": {"scale": 1.0, "mode": "fan_avg", "seed": null, "distribution": "uniform"}}, "kernel_regularizer": {"class_name": "L1L2", "config": {"l1": 0.0, "l2": 9.999999747378752e-05}}, "name": "policy_out", "bias_regularizer": null, "bias_initializer": {"class_name": "Zeros", "config": {}}, "trainable": true}, "inbound_nodes": [[["policy_flatten", 0, 0, {}]]]}, {"name": "value_out", "class_name": "Dense", "config": {"activity_regularizer": null, "kernel_constraint": null, "activation": "tanh", "units": 1, "use_bias": true, "bias_constraint": null, "kernel_initializer": {"class_name": "VarianceScaling", "config": {"scale": 1.0, "mode": "fan_avg", "seed": null, "distribution": "uniform"}}, "kernel_regularizer": {"class_name": "L1L2", "config": {"l1": 0.0, "l2": 9.999999747378752e-05}}, "name": "value_out", "bias_regularizer": null, "bias_initializer": {"class_name": "Zeros", "config": {}}, "trainable": true}, "inbound_nodes": [[["value_dense", 0, 0, {}]]]}], "output_layers": [["policy_out", 0, 0], ["value_out", 0, 0]], "input_layers": [["input_1", 0, 0]]}