{"name": "chess_model", "output_layers": [["policy_out", 0, 0], ["value_out", 0, 0]], "layers": [{"name": "input_1", "inbound_nodes": [], "config": {"dtype": "float32", "name": "input_1", "batch_input_shape": [null, 14, 10, 9], "sparse": false}, "class_name": "InputLayer"}, {"name": "input_conv-5-256", "inbound_nodes": [[["input_1", 0, 0, {}]]], "config": {"use_bias": false, "kernel_initializer": {"config": {"seed": null, "scale": 1.0, "distribution": "uniform", "mode": "fan_avg"}, "class_name": "VarianceScaling"}, "padding": "same", "bias_regularizer": null, "data_format": "channels_first", "kernel_regularizer": {"config": {"l1": 0.0, "l2": 9.999999747378752e-05}, "class_name": "L1L2"}, "strides": [1, 1], "filters": 256, "bias_constraint": null, "activation": "linear", "name": "input_conv-5-256", "kernel_size": [5, 5], "dilation_rate": [1, 1], "activity_regularizer": null, "trainable": true, "bias_initializer": {"config": {}, "class_name": "Zeros"}, "kernel_constraint": null}, "class_name": "Conv2D"}, {"name": "input_batchnorm", "inbound_nodes": [[["input_conv-5-256", 0, 0, {}]]], "config": {"gamma_initializer": {"config": {}, "class_name": "Ones"}, "momentum": 0.99, "moving_mean_initializer": {"config": {}, "class_name": "Zeros"}, "name": "input_batchnorm", "center": true, "beta_initializer": {"config": {}, "class_name": "Zeros"}, "moving_variance_initializer": {"config": {}, "class_name": "Ones"}, "scale": true, "gamma_regularizer": null, "gamma_constraint": null, "trainable": true, "axis": 1, "beta_regularizer": null, "epsilon": 0.001, "beta_constraint": null}, "class_name": "BatchNormalization"}, {"name": "input_relu", "inbound_nodes": [[["input_batchnorm", 0, 0, {}]]], "config": {"trainable": true, "name": "input_relu", "activation": "relu"}, "class_name": "Activation"}, {"name": "res1_conv1-3-256", "inbound_nodes": [[["input_relu", 0, 0, {}]]], "config": {"use_bias": false, "kernel_initializer": {"config": {"seed": null, "scale": 1.0, "distribution": "uniform", "mode": "fan_avg"}, "class_name": "VarianceScaling"}, "padding": "same", "bias_regularizer": null, "data_format": "channels_first", "kernel_regularizer": {"config": {"l1": 0.0, "l2": 9.999999747378752e-05}, "class_name": "L1L2"}, "strides": [1, 1], "filters": 256, "bias_constraint": null, "activation": "linear", "name": "res1_conv1-3-256", "kernel_size": [3, 3], "dilation_rate": [1, 1], "activity_regularizer": null, "trainable": true, "bias_initializer": {"config": {}, "class_name": "Zeros"}, "kernel_constraint": null}, "class_name": "Conv2D"}, {"name": "res1_batchnorm1", "inbound_nodes": [[["res1_conv1-3-256", 0, 0, {}]]], "config": {"gamma_initializer": {"config": {}, "class_name": "Ones"}, "momentum": 0.99, "moving_mean_initializer": {"config": {}, "class_name": "Zeros"}, "name": "res1_batchnorm1", "center": true, "beta_initializer": {"config": {}, "class_name": "Zeros"}, "moving_variance_initializer": {"config": {}, "class_name": "Ones"}, "scale": true, "gamma_regularizer": null, "gamma_constraint": null, "trainable": true, "axis": 1, "beta_regularizer": null, "epsilon": 0.001, "beta_constraint": null}, "class_name": "BatchNormalization"}, {"name": "res1_relu1", "inbound_nodes": [[["res1_batchnorm1", 0, 0, {}]]], "config": {"trainable": true, "name": "res1_relu1", "activation": "relu"}, "class_name": "Activation"}, {"name": "res1_conv2-3-256", "inbound_nodes": [[["res1_relu1", 0, 0, {}]]], "config": {"use_bias": false, "kernel_initializer": {"config": {"seed": null, "scale": 1.0, "distribution": "uniform", "mode": "fan_avg"}, "class_name": "VarianceScaling"}, "padding": "same", "bias_regularizer": null, "data_format": "channels_first", "kernel_regularizer": {"config": {"l1": 0.0, "l2": 9.999999747378752e-05}, "class_name": "L1L2"}, "strides": [1, 1], "filters": 256, "bias_constraint": null, "activation": "linear", "name": "res1_conv2-3-256", "kernel_size": [3, 3], "dilation_rate": [1, 1], "activity_regularizer": null, "trainable": true, "bias_initializer": {"config": {}, "class_name": "Zeros"}, "kernel_constraint": null}, "class_name": "Conv2D"}, {"name": "res1_batchnorm2", "inbound_nodes": [[["res1_conv2-3-256", 0, 0, {}]]], "config": {"gamma_initializer": {"config": {}, "class_name": "Ones"}, "momentum": 0.99, "moving_mean_initializer": {"config": {}, "class_name": "Zeros"}, "name": "res1_batchnorm2", "center": true, "beta_initializer": {"config": {}, "class_name": "Zeros"}, "moving_variance_initializer": {"config": {}, "class_name": "Ones"}, "scale": true, "gamma_regularizer": null, "gamma_constraint": null, "trainable": true, "axis": 1, "beta_regularizer": null, "epsilon": 0.001, "beta_constraint": null}, "class_name": "BatchNormalization"}, {"name": "res1_add", "inbound_nodes": [[["input_relu", 0, 0, {}], ["res1_batchnorm2", 0, 0, {}]]], "config": {"trainable": true, "name": "res1_add"}, "class_name": "Add"}, {"name": "res1_relu2", "inbound_nodes": [[["res1_add", 0, 0, {}]]], "config": {"trainable": true, "name": "res1_relu2", "activation": "relu"}, "class_name": "Activation"}, {"name": "res2_conv1-3-256", "inbound_nodes": [[["res1_relu2", 0, 0, {}]]], "config": {"use_bias": false, "kernel_initializer": {"config": {"seed": null, "scale": 1.0, "distribution": "uniform", "mode": "fan_avg"}, "class_name": "VarianceScaling"}, "padding": "same", "bias_regularizer": null, "data_format": "channels_first", "kernel_regularizer": {"config": {"l1": 0.0, "l2": 9.999999747378752e-05}, "class_name": "L1L2"}, "strides": [1, 1], "filters": 256, "bias_constraint": null, "activation": "linear", "name": "res2_conv1-3-256", "kernel_size": [3, 3], "dilation_rate": [1, 1], "activity_regularizer": null, "trainable": true, "bias_initializer": {"config": {}, "class_name": "Zeros"}, "kernel_constraint": null}, "class_name": "Conv2D"}, {"name": "res2_batchnorm1", "inbound_nodes": [[["res2_conv1-3-256", 0, 0, {}]]], "config": {"gamma_initializer": {"config": {}, "class_name": "Ones"}, "momentum": 0.99, "moving_mean_initializer": {"config": {}, "class_name": "Zeros"}, "name": "res2_batchnorm1", "center": true, "beta_initializer": {"config": {}, "class_name": "Zeros"}, "moving_variance_initializer": {"config": {}, "class_name": "Ones"}, "scale": true, "gamma_regularizer": null, "gamma_constraint": null, "trainable": true, "axis": 1, "beta_regularizer": null, "epsilon": 0.001, "beta_constraint": null}, "class_name": "BatchNormalization"}, {"name": "res2_relu1", "inbound_nodes": [[["res2_batchnorm1", 0, 0, {}]]], "config": {"trainable": true, "name": "res2_relu1", "activation": "relu"}, "class_name": "Activation"}, {"name": "res2_conv2-3-256", "inbound_nodes": [[["res2_relu1", 0, 0, {}]]], "config": {"use_bias": false, "kernel_initializer": {"config": {"seed": null, "scale": 1.0, "distribution": "uniform", "mode": "fan_avg"}, "class_name": "VarianceScaling"}, "padding": "same", "bias_regularizer": null, "data_format": "channels_first", "kernel_regularizer": {"config": {"l1": 0.0, "l2": 9.999999747378752e-05}, "class_name": "L1L2"}, "strides": [1, 1], "filters": 256, "bias_constraint": null, "activation": "linear", "name": "res2_conv2-3-256", "kernel_size": [3, 3], "dilation_rate": [1, 1], "activity_regularizer": null, "trainable": true, "bias_initializer": {"config": {}, "class_name": "Zeros"}, "kernel_constraint": null}, "class_name": "Conv2D"}, {"name": "res2_batchnorm2", "inbound_nodes": [[["res2_conv2-3-256", 0, 0, {}]]], "config": {"gamma_initializer": {"config": {}, "class_name": "Ones"}, "momentum": 0.99, "moving_mean_initializer": {"config": {}, "class_name": "Zeros"}, "name": "res2_batchnorm2", "center": true, "beta_initializer": {"config": {}, "class_name": "Zeros"}, "moving_variance_initializer": {"config": {}, "class_name": "Ones"}, "scale": true, "gamma_regularizer": null, "gamma_constraint": null, "trainable": true, "axis": 1, "beta_regularizer": null, "epsilon": 0.001, "beta_constraint": null}, "class_name": "BatchNormalization"}, {"name": "res2_add", "inbound_nodes": [[["res1_relu2", 0, 0, {}], ["res2_batchnorm2", 0, 0, {}]]], "config": {"trainable": true, "name": "res2_add"}, "class_name": "Add"}, {"name": "res2_relu2", "inbound_nodes": [[["res2_add", 0, 0, {}]]], "config": {"trainable": true, "name": "res2_relu2", "activation": "relu"}, "class_name": "Activation"}, {"name": "res3_conv1-3-256", "inbound_nodes": [[["res2_relu2", 0, 0, {}]]], "config": {"use_bias": false, "kernel_initializer": {"config": {"seed": null, "scale": 1.0, "distribution": "uniform", "mode": "fan_avg"}, "class_name": "VarianceScaling"}, "padding": "same", "bias_regularizer": null, "data_format": "channels_first", "kernel_regularizer": {"config": {"l1": 0.0, "l2": 9.999999747378752e-05}, "class_name": "L1L2"}, "strides": [1, 1], "filters": 256, "bias_constraint": null, "activation": "linear", "name": "res3_conv1-3-256", "kernel_size": [3, 3], "dilation_rate": [1, 1], "activity_regularizer": null, "trainable": true, "bias_initializer": {"config": {}, "class_name": "Zeros"}, "kernel_constraint": null}, "class_name": "Conv2D"}, {"name": "res3_batchnorm1", "inbound_nodes": [[["res3_conv1-3-256", 0, 0, {}]]], "config": {"gamma_initializer": {"config": {}, "class_name": "Ones"}, "momentum": 0.99, "moving_mean_initializer": {"config": {}, "class_name": "Zeros"}, "name": "res3_batchnorm1", "center": true, "beta_initializer": {"config": {}, "class_name": "Zeros"}, "moving_variance_initializer": {"config": {}, "class_name": "Ones"}, "scale": true, "gamma_regularizer": null, "gamma_constraint": null, "trainable": true, "axis": 1, "beta_regularizer": null, "epsilon": 0.001, "beta_constraint": null}, "class_name": "BatchNormalization"}, {"name": "res3_relu1", "inbound_nodes": [[["res3_batchnorm1", 0, 0, {}]]], "config": {"trainable": true, "name": "res3_relu1", "activation": "relu"}, "class_name": "Activation"}, {"name": "res3_conv2-3-256", "inbound_nodes": [[["res3_relu1", 0, 0, {}]]], "config": {"use_bias": false, "kernel_initializer": {"config": {"seed": null, "scale": 1.0, "distribution": "uniform", "mode": "fan_avg"}, "class_name": "VarianceScaling"}, "padding": "same", "bias_regularizer": null, "data_format": "channels_first", "kernel_regularizer": {"config": {"l1": 0.0, "l2": 9.999999747378752e-05}, "class_name": "L1L2"}, "strides": [1, 1], "filters": 256, "bias_constraint": null, "activation": "linear", "name": "res3_conv2-3-256", "kernel_size": [3, 3], "dilation_rate": [1, 1], "activity_regularizer": null, "trainable": true, "bias_initializer": {"config": {}, "class_name": "Zeros"}, "kernel_constraint": null}, "class_name": "Conv2D"}, {"name": "res3_batchnorm2", "inbound_nodes": [[["res3_conv2-3-256", 0, 0, {}]]], "config": {"gamma_initializer": {"config": {}, "class_name": "Ones"}, "momentum": 0.99, "moving_mean_initializer": {"config": {}, "class_name": "Zeros"}, "name": "res3_batchnorm2", "center": true, "beta_initializer": {"config": {}, "class_name": "Zeros"}, "moving_variance_initializer": {"config": {}, "class_name": "Ones"}, "scale": true, "gamma_regularizer": null, "gamma_constraint": null, "trainable": true, "axis": 1, "beta_regularizer": null, "epsilon": 0.001, "beta_constraint": null}, "class_name": "BatchNormalization"}, {"name": "res3_add", "inbound_nodes": [[["res2_relu2", 0, 0, {}], ["res3_batchnorm2", 0, 0, {}]]], "config": {"trainable": true, "name": "res3_add"}, "class_name": "Add"}, {"name": "res3_relu2", "inbound_nodes": [[["res3_add", 0, 0, {}]]], "config": {"trainable": true, "name": "res3_relu2", "activation": "relu"}, "class_name": "Activation"}, {"name": "res4_conv1-3-256", "inbound_nodes": [[["res3_relu2", 0, 0, {}]]], "config": {"use_bias": false, "kernel_initializer": {"config": {"seed": null, "scale": 1.0, "distribution": "uniform", "mode": "fan_avg"}, "class_name": "VarianceScaling"}, "padding": "same", "bias_regularizer": null, "data_format": "channels_first", "kernel_regularizer": {"config": {"l1": 0.0, "l2": 9.999999747378752e-05}, "class_name": "L1L2"}, "strides": [1, 1], "filters": 256, "bias_constraint": null, "activation": "linear", "name": "res4_conv1-3-256", "kernel_size": [3, 3], "dilation_rate": [1, 1], "activity_regularizer": null, "trainable": true, "bias_initializer": {"config": {}, "class_name": "Zeros"}, "kernel_constraint": null}, "class_name": "Conv2D"}, {"name": "res4_batchnorm1", "inbound_nodes": [[["res4_conv1-3-256", 0, 0, {}]]], "config": {"gamma_initializer": {"config": {}, "class_name": "Ones"}, "momentum": 0.99, "moving_mean_initializer": {"config": {}, "class_name": "Zeros"}, "name": "res4_batchnorm1", "center": true, "beta_initializer": {"config": {}, "class_name": "Zeros"}, "moving_variance_initializer": {"config": {}, "class_name": "Ones"}, "scale": true, "gamma_regularizer": null, "gamma_constraint": null, "trainable": true, "axis": 1, "beta_regularizer": null, "epsilon": 0.001, "beta_constraint": null}, "class_name": "BatchNormalization"}, {"name": "res4_relu1", "inbound_nodes": [[["res4_batchnorm1", 0, 0, {}]]], "config": {"trainable": true, "name": "res4_relu1", "activation": "relu"}, "class_name": "Activation"}, {"name": "res4_conv2-3-256", "inbound_nodes": [[["res4_relu1", 0, 0, {}]]], "config": {"use_bias": false, "kernel_initializer": {"config": {"seed": null, "scale": 1.0, "distribution": "uniform", "mode": "fan_avg"}, "class_name": "VarianceScaling"}, "padding": "same", "bias_regularizer": null, "data_format": "channels_first", "kernel_regularizer": {"config": {"l1": 0.0, "l2": 9.999999747378752e-05}, "class_name": "L1L2"}, "strides": [1, 1], "filters": 256, "bias_constraint": null, "activation": "linear", "name": "res4_conv2-3-256", "kernel_size": [3, 3], "dilation_rate": [1, 1], "activity_regularizer": null, "trainable": true, "bias_initializer": {"config": {}, "class_name": "Zeros"}, "kernel_constraint": null}, "class_name": "Conv2D"}, {"name": "res4_batchnorm2", "inbound_nodes": [[["res4_conv2-3-256", 0, 0, {}]]], "config": {"gamma_initializer": {"config": {}, "class_name": "Ones"}, "momentum": 0.99, "moving_mean_initializer": {"config": {}, "class_name": "Zeros"}, "name": "res4_batchnorm2", "center": true, "beta_initializer": {"config": {}, "class_name": "Zeros"}, "moving_variance_initializer": {"config": {}, "class_name": "Ones"}, "scale": true, "gamma_regularizer": null, "gamma_constraint": null, "trainable": true, "axis": 1, "beta_regularizer": null, "epsilon": 0.001, "beta_constraint": null}, "class_name": "BatchNormalization"}, {"name": "res4_add", "inbound_nodes": [[["res3_relu2", 0, 0, {}], ["res4_batchnorm2", 0, 0, {}]]], "config": {"trainable": true, "name": "res4_add"}, "class_name": "Add"}, {"name": "res4_relu2", "inbound_nodes": [[["res4_add", 0, 0, {}]]], "config": {"trainable": true, "name": "res4_relu2", "activation": "relu"}, "class_name": "Activation"}, {"name": "res5_conv1-3-256", "inbound_nodes": [[["res4_relu2", 0, 0, {}]]], "config": {"use_bias": false, "kernel_initializer": {"config": {"seed": null, "scale": 1.0, "distribution": "uniform", "mode": "fan_avg"}, "class_name": "VarianceScaling"}, "padding": "same", "bias_regularizer": null, "data_format": "channels_first", "kernel_regularizer": {"config": {"l1": 0.0, "l2": 9.999999747378752e-05}, "class_name": "L1L2"}, "strides": [1, 1], "filters": 256, "bias_constraint": null, "activation": "linear", "name": "res5_conv1-3-256", "kernel_size": [3, 3], "dilation_rate": [1, 1], "activity_regularizer": null, "trainable": true, "bias_initializer": {"config": {}, "class_name": "Zeros"}, "kernel_constraint": null}, "class_name": "Conv2D"}, {"name": "res5_batchnorm1", "inbound_nodes": [[["res5_conv1-3-256", 0, 0, {}]]], "config": {"gamma_initializer": {"config": {}, "class_name": "Ones"}, "momentum": 0.99, "moving_mean_initializer": {"config": {}, "class_name": "Zeros"}, "name": "res5_batchnorm1", "center": true, "beta_initializer": {"config": {}, "class_name": "Zeros"}, "moving_variance_initializer": {"config": {}, "class_name": "Ones"}, "scale": true, "gamma_regularizer": null, "gamma_constraint": null, "trainable": true, "axis": 1, "beta_regularizer": null, "epsilon": 0.001, "beta_constraint": null}, "class_name": "BatchNormalization"}, {"name": "res5_relu1", "inbound_nodes": [[["res5_batchnorm1", 0, 0, {}]]], "config": {"trainable": true, "name": "res5_relu1", "activation": "relu"}, "class_name": "Activation"}, {"name": "res5_conv2-3-256", "inbound_nodes": [[["res5_relu1", 0, 0, {}]]], "config": {"use_bias": false, "kernel_initializer": {"config": {"seed": null, "scale": 1.0, "distribution": "uniform", "mode": "fan_avg"}, "class_name": "VarianceScaling"}, "padding": "same", "bias_regularizer": null, "data_format": "channels_first", "kernel_regularizer": {"config": {"l1": 0.0, "l2": 9.999999747378752e-05}, "class_name": "L1L2"}, "strides": [1, 1], "filters": 256, "bias_constraint": null, "activation": "linear", "name": "res5_conv2-3-256", "kernel_size": [3, 3], "dilation_rate": [1, 1], "activity_regularizer": null, "trainable": true, "bias_initializer": {"config": {}, "class_name": "Zeros"}, "kernel_constraint": null}, "class_name": "Conv2D"}, {"name": "res5_batchnorm2", "inbound_nodes": [[["res5_conv2-3-256", 0, 0, {}]]], "config": {"gamma_initializer": {"config": {}, "class_name": "Ones"}, "momentum": 0.99, "moving_mean_initializer": {"config": {}, "class_name": "Zeros"}, "name": "res5_batchnorm2", "center": true, "beta_initializer": {"config": {}, "class_name": "Zeros"}, "moving_variance_initializer": {"config": {}, "class_name": "Ones"}, "scale": true, "gamma_regularizer": null, "gamma_constraint": null, "trainable": true, "axis": 1, "beta_regularizer": null, "epsilon": 0.001, "beta_constraint": null}, "class_name": "BatchNormalization"}, {"name": "res5_add", "inbound_nodes": [[["res4_relu2", 0, 0, {}], ["res5_batchnorm2", 0, 0, {}]]], "config": {"trainable": true, "name": "res5_add"}, "class_name": "Add"}, {"name": "res5_relu2", "inbound_nodes": [[["res5_add", 0, 0, {}]]], "config": {"trainable": true, "name": "res5_relu2", "activation": "relu"}, "class_name": "Activation"}, {"name": "res6_conv1-3-256", "inbound_nodes": [[["res5_relu2", 0, 0, {}]]], "config": {"use_bias": false, "kernel_initializer": {"config": {"seed": null, "scale": 1.0, "distribution": "uniform", "mode": "fan_avg"}, "class_name": "VarianceScaling"}, "padding": "same", "bias_regularizer": null, "data_format": "channels_first", "kernel_regularizer": {"config": {"l1": 0.0, "l2": 9.999999747378752e-05}, "class_name": "L1L2"}, "strides": [1, 1], "filters": 256, "bias_constraint": null, "activation": "linear", "name": "res6_conv1-3-256", "kernel_size": [3, 3], "dilation_rate": [1, 1], "activity_regularizer": null, "trainable": true, "bias_initializer": {"config": {}, "class_name": "Zeros"}, "kernel_constraint": null}, "class_name": "Conv2D"}, {"name": "res6_batchnorm1", "inbound_nodes": [[["res6_conv1-3-256", 0, 0, {}]]], "config": {"gamma_initializer": {"config": {}, "class_name": "Ones"}, "momentum": 0.99, "moving_mean_initializer": {"config": {}, "class_name": "Zeros"}, "name": "res6_batchnorm1", "center": true, "beta_initializer": {"config": {}, "class_name": "Zeros"}, "moving_variance_initializer": {"config": {}, "class_name": "Ones"}, "scale": true, "gamma_regularizer": null, "gamma_constraint": null, "trainable": true, "axis": 1, "beta_regularizer": null, "epsilon": 0.001, "beta_constraint": null}, "class_name": "BatchNormalization"}, {"name": "res6_relu1", "inbound_nodes": [[["res6_batchnorm1", 0, 0, {}]]], "config": {"trainable": true, "name": "res6_relu1", "activation": "relu"}, "class_name": "Activation"}, {"name": "res6_conv2-3-256", "inbound_nodes": [[["res6_relu1", 0, 0, {}]]], "config": {"use_bias": false, "kernel_initializer": {"config": {"seed": null, "scale": 1.0, "distribution": "uniform", "mode": "fan_avg"}, "class_name": "VarianceScaling"}, "padding": "same", "bias_regularizer": null, "data_format": "channels_first", "kernel_regularizer": {"config": {"l1": 0.0, "l2": 9.999999747378752e-05}, "class_name": "L1L2"}, "strides": [1, 1], "filters": 256, "bias_constraint": null, "activation": "linear", "name": "res6_conv2-3-256", "kernel_size": [3, 3], "dilation_rate": [1, 1], "activity_regularizer": null, "trainable": true, "bias_initializer": {"config": {}, "class_name": "Zeros"}, "kernel_constraint": null}, "class_name": "Conv2D"}, {"name": "res6_batchnorm2", "inbound_nodes": [[["res6_conv2-3-256", 0, 0, {}]]], "config": {"gamma_initializer": {"config": {}, "class_name": "Ones"}, "momentum": 0.99, "moving_mean_initializer": {"config": {}, "class_name": "Zeros"}, "name": "res6_batchnorm2", "center": true, "beta_initializer": {"config": {}, "class_name": "Zeros"}, "moving_variance_initializer": {"config": {}, "class_name": "Ones"}, "scale": true, "gamma_regularizer": null, "gamma_constraint": null, "trainable": true, "axis": 1, "beta_regularizer": null, "epsilon": 0.001, "beta_constraint": null}, "class_name": "BatchNormalization"}, {"name": "res6_add", "inbound_nodes": [[["res5_relu2", 0, 0, {}], ["res6_batchnorm2", 0, 0, {}]]], "config": {"trainable": true, "name": "res6_add"}, "class_name": "Add"}, {"name": "res6_relu2", "inbound_nodes": [[["res6_add", 0, 0, {}]]], "config": {"trainable": true, "name": "res6_relu2", "activation": "relu"}, "class_name": "Activation"}, {"name": "res7_conv1-3-256", "inbound_nodes": [[["res6_relu2", 0, 0, {}]]], "config": {"use_bias": false, "kernel_initializer": {"config": {"seed": null, "scale": 1.0, "distribution": "uniform", "mode": "fan_avg"}, "class_name": "VarianceScaling"}, "padding": "same", "bias_regularizer": null, "data_format": "channels_first", "kernel_regularizer": {"config": {"l1": 0.0, "l2": 9.999999747378752e-05}, "class_name": "L1L2"}, "strides": [1, 1], "filters": 256, "bias_constraint": null, "activation": "linear", "name": "res7_conv1-3-256", "kernel_size": [3, 3], "dilation_rate": [1, 1], "activity_regularizer": null, "trainable": true, "bias_initializer": {"config": {}, "class_name": "Zeros"}, "kernel_constraint": null}, "class_name": "Conv2D"}, {"name": "res7_batchnorm1", "inbound_nodes": [[["res7_conv1-3-256", 0, 0, {}]]], "config": {"gamma_initializer": {"config": {}, "class_name": "Ones"}, "momentum": 0.99, "moving_mean_initializer": {"config": {}, "class_name": "Zeros"}, "name": "res7_batchnorm1", "center": true, "beta_initializer": {"config": {}, "class_name": "Zeros"}, "moving_variance_initializer": {"config": {}, "class_name": "Ones"}, "scale": true, "gamma_regularizer": null, "gamma_constraint": null, "trainable": true, "axis": 1, "beta_regularizer": null, "epsilon": 0.001, "beta_constraint": null}, "class_name": "BatchNormalization"}, {"name": "res7_relu1", "inbound_nodes": [[["res7_batchnorm1", 0, 0, {}]]], "config": {"trainable": true, "name": "res7_relu1", "activation": "relu"}, "class_name": "Activation"}, {"name": "res7_conv2-3-256", "inbound_nodes": [[["res7_relu1", 0, 0, {}]]], "config": {"use_bias": false, "kernel_initializer": {"config": {"seed": null, "scale": 1.0, "distribution": "uniform", "mode": "fan_avg"}, "class_name": "VarianceScaling"}, "padding": "same", "bias_regularizer": null, "data_format": "channels_first", "kernel_regularizer": {"config": {"l1": 0.0, "l2": 9.999999747378752e-05}, "class_name": "L1L2"}, "strides": [1, 1], "filters": 256, "bias_constraint": null, "activation": "linear", "name": "res7_conv2-3-256", "kernel_size": [3, 3], "dilation_rate": [1, 1], "activity_regularizer": null, "trainable": true, "bias_initializer": {"config": {}, "class_name": "Zeros"}, "kernel_constraint": null}, "class_name": "Conv2D"}, {"name": "res7_batchnorm2", "inbound_nodes": [[["res7_conv2-3-256", 0, 0, {}]]], "config": {"gamma_initializer": {"config": {}, "class_name": "Ones"}, "momentum": 0.99, "moving_mean_initializer": {"config": {}, "class_name": "Zeros"}, "name": "res7_batchnorm2", "center": true, "beta_initializer": {"config": {}, "class_name": "Zeros"}, "moving_variance_initializer": {"config": {}, "class_name": "Ones"}, "scale": true, "gamma_regularizer": null, "gamma_constraint": null, "trainable": true, "axis": 1, "beta_regularizer": null, "epsilon": 0.001, "beta_constraint": null}, "class_name": "BatchNormalization"}, {"name": "res7_add", "inbound_nodes": [[["res6_relu2", 0, 0, {}], ["res7_batchnorm2", 0, 0, {}]]], "config": {"trainable": true, "name": "res7_add"}, "class_name": "Add"}, {"name": "res7_relu2", "inbound_nodes": [[["res7_add", 0, 0, {}]]], "config": {"trainable": true, "name": "res7_relu2", "activation": "relu"}, "class_name": "Activation"}, {"name": "value_conv-1-4", "inbound_nodes": [[["res7_relu2", 0, 0, {}]]], "config": {"use_bias": false, "kernel_initializer": {"config": {"seed": null, "scale": 1.0, "distribution": "uniform", "mode": "fan_avg"}, "class_name": "VarianceScaling"}, "padding": "valid", "bias_regularizer": null, "data_format": "channels_first", "kernel_regularizer": {"config": {"l1": 0.0, "l2": 9.999999747378752e-05}, "class_name": "L1L2"}, "strides": [1, 1], "filters": 4, "bias_constraint": null, "activation": "linear", "name": "value_conv-1-4", "kernel_size": [1, 1], "dilation_rate": [1, 1], "activity_regularizer": null, "trainable": true, "bias_initializer": {"config": {}, "class_name": "Zeros"}, "kernel_constraint": null}, "class_name": "Conv2D"}, {"name": "policy_conv-1-2", "inbound_nodes": [[["res7_relu2", 0, 0, {}]]], "config": {"use_bias": false, "kernel_initializer": {"config": {"seed": null, "scale": 1.0, "distribution": "uniform", "mode": "fan_avg"}, "class_name": "VarianceScaling"}, "padding": "valid", "bias_regularizer": null, "data_format": "channels_first", "kernel_regularizer": {"config": {"l1": 0.0, "l2": 9.999999747378752e-05}, "class_name": "L1L2"}, "strides": [1, 1], "filters": 2, "bias_constraint": null, "activation": "linear", "name": "policy_conv-1-2", "kernel_size": [1, 1], "dilation_rate": [1, 1], "activity_regularizer": null, "trainable": true, "bias_initializer": {"config": {}, "class_name": "Zeros"}, "kernel_constraint": null}, "class_name": "Conv2D"}, {"name": "value_batchnorm", "inbound_nodes": [[["value_conv-1-4", 0, 0, {}]]], "config": {"gamma_initializer": {"config": {}, "class_name": "Ones"}, "momentum": 0.99, "moving_mean_initializer": {"config": {}, "class_name": "Zeros"}, "name": "value_batchnorm", "center": true, "beta_initializer": {"config": {}, "class_name": "Zeros"}, "moving_variance_initializer": {"config": {}, "class_name": "Ones"}, "scale": true, "gamma_regularizer": null, "gamma_constraint": null, "trainable": true, "axis": 1, "beta_regularizer": null, "epsilon": 0.001, "beta_constraint": null}, "class_name": "BatchNormalization"}, {"name": "policy_batchnorm", "inbound_nodes": [[["policy_conv-1-2", 0, 0, {}]]], "config": {"gamma_initializer": {"config": {}, "class_name": "Ones"}, "momentum": 0.99, "moving_mean_initializer": {"config": {}, "class_name": "Zeros"}, "name": "policy_batchnorm", "center": true, "beta_initializer": {"config": {}, "class_name": "Zeros"}, "moving_variance_initializer": {"config": {}, "class_name": "Ones"}, "scale": true, "gamma_regularizer": null, "gamma_constraint": null, "trainable": true, "axis": 1, "beta_regularizer": null, "epsilon": 0.001, "beta_constraint": null}, "class_name": "BatchNormalization"}, {"name": "value_relu", "inbound_nodes": [[["value_batchnorm", 0, 0, {}]]], "config": {"trainable": true, "name": "value_relu", "activation": "relu"}, "class_name": "Activation"}, {"name": "policy_relu", "inbound_nodes": [[["policy_batchnorm", 0, 0, {}]]], "config": {"trainable": true, "name": "policy_relu", "activation": "relu"}, "class_name": "Activation"}, {"name": "value_flatten", "inbound_nodes": [[["value_relu", 0, 0, {}]]], "config": {"trainable": true, "name": "value_flatten"}, "class_name": "Flatten"}, {"name": "policy_flatten", "inbound_nodes": [[["policy_relu", 0, 0, {}]]], "config": {"trainable": true, "name": "policy_flatten"}, "class_name": "Flatten"}, {"name": "value_dense", "inbound_nodes": [[["value_flatten", 0, 0, {}]]], "config": {"use_bias": true, "kernel_initializer": {"config": {"seed": null, "scale": 1.0, "distribution": "uniform", "mode": "fan_avg"}, "class_name": "VarianceScaling"}, "bias_regularizer": null, "kernel_regularizer": {"config": {"l1": 0.0, "l2": 9.999999747378752e-05}, "class_name": "L1L2"}, "bias_constraint": null, "activation": "relu", "name": "value_dense", "bias_initializer": {"config": {}, "class_name": "Zeros"}, "activity_regularizer": null, "trainable": true, "units": 256, "kernel_constraint": null}, "class_name": "Dense"}, {"name": "policy_out", "inbound_nodes": [[["policy_flatten", 0, 0, {}]]], "config": {"use_bias": true, "kernel_initializer": {"config": {"seed": null, "scale": 1.0, "distribution": "uniform", "mode": "fan_avg"}, "class_name": "VarianceScaling"}, "bias_regularizer": null, "kernel_regularizer": {"config": {"l1": 0.0, "l2": 9.999999747378752e-05}, "class_name": "L1L2"}, "bias_constraint": null, "activation": "softmax", "name": "policy_out", "bias_initializer": {"config": {}, "class_name": "Zeros"}, "activity_regularizer": null, "trainable": true, "units": 2086, "kernel_constraint": null}, "class_name": "Dense"}, {"name": "value_out", "inbound_nodes": [[["value_dense", 0, 0, {}]]], "config": {"use_bias": true, "kernel_initializer": {"config": {"seed": null, "scale": 1.0, "distribution": "uniform", "mode": "fan_avg"}, "class_name": "VarianceScaling"}, "bias_regularizer": null, "kernel_regularizer": {"config": {"l1": 0.0, "l2": 9.999999747378752e-05}, "class_name": "L1L2"}, "bias_constraint": null, "activation": "tanh", "name": "value_out", "bias_initializer": {"config": {}, "class_name": "Zeros"}, "activity_regularizer": null, "trainable": true, "units": 1, "kernel_constraint": null}, "class_name": "Dense"}], "input_layers": [["input_1", 0, 0]]}