{"input_layers": [["input_1", 0, 0]], "output_layers": [["policy_out", 0, 0], ["value_out", 0, 0]], "layers": [{"inbound_nodes": [], "name": "input_1", "config": {"sparse": false, "dtype": "float32", "batch_input_shape": [null, 14, 10, 9], "name": "input_1"}, "class_name": "InputLayer"}, {"inbound_nodes": [[["input_1", 0, 0, {}]]], "name": "input_conv-5-256", "config": {"kernel_size": [5, 5], "bias_initializer": {"config": {}, "class_name": "Zeros"}, "data_format": "channels_first", "filters": 256, "trainable": true, "kernel_constraint": null, "bias_constraint": null, "strides": [1, 1], "bias_regularizer": null, "dilation_rate": [1, 1], "activity_regularizer": null, "activation": "linear", "kernel_regularizer": {"config": {"l2": 9.999999747378752e-05, "l1": 0.0}, "class_name": "L1L2"}, "use_bias": false, "padding": "same", "name": "input_conv-5-256", "kernel_initializer": {"config": {"seed": null, "mode": "fan_avg", "scale": 1.0, "distribution": "uniform"}, "class_name": "VarianceScaling"}}, "class_name": "Conv2D"}, {"inbound_nodes": [[["input_conv-5-256", 0, 0, {}]]], "name": "input_batchnorm", "config": {"gamma_initializer": {"config": {}, "class_name": "Ones"}, "epsilon": 0.001, "center": true, "axis": 1, "trainable": true, "beta_initializer": {"config": {}, "class_name": "Zeros"}, "momentum": 0.99, "gamma_regularizer": null, "beta_regularizer": null, "beta_constraint": null, "moving_mean_initializer": {"config": {}, "class_name": "Zeros"}, "name": "input_batchnorm", "scale": true, "gamma_constraint": null, "moving_variance_initializer": {"config": {}, "class_name": "Ones"}}, "class_name": "BatchNormalization"}, {"inbound_nodes": [[["input_batchnorm", 0, 0, {}]]], "name": "input_relu", "config": {"activation": "relu", "trainable": true, "name": "input_relu"}, "class_name": "Activation"}, {"inbound_nodes": [[["input_relu", 0, 0, {}]]], "name": "res1_conv1-3-256", "config": {"kernel_size": [3, 3], "bias_initializer": {"config": {}, "class_name": "Zeros"}, "data_format": "channels_first", "filters": 256, "trainable": true, "kernel_constraint": null, "bias_constraint": null, "strides": [1, 1], "bias_regularizer": null, "dilation_rate": [1, 1], "activity_regularizer": null, "activation": "linear", "kernel_regularizer": {"config": {"l2": 9.999999747378752e-05, "l1": 0.0}, "class_name": "L1L2"}, "use_bias": false, "padding": "same", "name": "res1_conv1-3-256", "kernel_initializer": {"config": {"seed": null, "mode": "fan_avg", "scale": 1.0, "distribution": "uniform"}, "class_name": "VarianceScaling"}}, "class_name": "Conv2D"}, {"inbound_nodes": [[["res1_conv1-3-256", 0, 0, {}]]], "name": "res1_batchnorm1", "config": {"gamma_initializer": {"config": {}, "class_name": "Ones"}, "epsilon": 0.001, "center": true, "axis": 1, "trainable": true, "beta_initializer": {"config": {}, "class_name": "Zeros"}, "momentum": 0.99, "gamma_regularizer": null, "beta_regularizer": null, "beta_constraint": null, "moving_mean_initializer": {"config": {}, "class_name": "Zeros"}, "name": "res1_batchnorm1", "scale": true, "gamma_constraint": null, "moving_variance_initializer": {"config": {}, "class_name": "Ones"}}, "class_name": "BatchNormalization"}, {"inbound_nodes": [[["res1_batchnorm1", 0, 0, {}]]], "name": "res1_relu1", "config": {"activation": "relu", "trainable": true, "name": "res1_relu1"}, "class_name": "Activation"}, {"inbound_nodes": [[["res1_relu1", 0, 0, {}]]], "name": "res1_conv2-3-256", "config": {"kernel_size": [3, 3], "bias_initializer": {"config": {}, "class_name": "Zeros"}, "data_format": "channels_first", "filters": 256, "trainable": true, "kernel_constraint": null, "bias_constraint": null, "strides": [1, 1], "bias_regularizer": null, "dilation_rate": [1, 1], "activity_regularizer": null, "activation": "linear", "kernel_regularizer": {"config": {"l2": 9.999999747378752e-05, "l1": 0.0}, "class_name": "L1L2"}, "use_bias": false, "padding": "same", "name": "res1_conv2-3-256", "kernel_initializer": {"config": {"seed": null, "mode": "fan_avg", "scale": 1.0, "distribution": "uniform"}, "class_name": "VarianceScaling"}}, "class_name": "Conv2D"}, {"inbound_nodes": [[["res1_conv2-3-256", 0, 0, {}]]], "name": "res1_batchnorm2", "config": {"gamma_initializer": {"config": {}, "class_name": "Ones"}, "epsilon": 0.001, "center": true, "axis": 1, "trainable": true, "beta_initializer": {"config": {}, "class_name": "Zeros"}, "momentum": 0.99, "gamma_regularizer": null, "beta_regularizer": null, "beta_constraint": null, "moving_mean_initializer": {"config": {}, "class_name": "Zeros"}, "name": "res1_batchnorm2", "scale": true, "gamma_constraint": null, "moving_variance_initializer": {"config": {}, "class_name": "Ones"}}, "class_name": "BatchNormalization"}, {"inbound_nodes": [[["input_relu", 0, 0, {}], ["res1_batchnorm2", 0, 0, {}]]], "name": "res1_add", "config": {"trainable": true, "name": "res1_add"}, "class_name": "Add"}, {"inbound_nodes": [[["res1_add", 0, 0, {}]]], "name": "res1_relu2", "config": {"activation": "relu", "trainable": true, "name": "res1_relu2"}, "class_name": "Activation"}, {"inbound_nodes": [[["res1_relu2", 0, 0, {}]]], "name": "res2_conv1-3-256", "config": {"kernel_size": [3, 3], "bias_initializer": {"config": {}, "class_name": "Zeros"}, "data_format": "channels_first", "filters": 256, "trainable": true, "kernel_constraint": null, "bias_constraint": null, "strides": [1, 1], "bias_regularizer": null, "dilation_rate": [1, 1], "activity_regularizer": null, "activation": "linear", "kernel_regularizer": {"config": {"l2": 9.999999747378752e-05, "l1": 0.0}, "class_name": "L1L2"}, "use_bias": false, "padding": "same", "name": "res2_conv1-3-256", "kernel_initializer": {"config": {"seed": null, "mode": "fan_avg", "scale": 1.0, "distribution": "uniform"}, "class_name": "VarianceScaling"}}, "class_name": "Conv2D"}, {"inbound_nodes": [[["res2_conv1-3-256", 0, 0, {}]]], "name": "res2_batchnorm1", "config": {"gamma_initializer": {"config": {}, "class_name": "Ones"}, "epsilon": 0.001, "center": true, "axis": 1, "trainable": true, "beta_initializer": {"config": {}, "class_name": "Zeros"}, "momentum": 0.99, "gamma_regularizer": null, "beta_regularizer": null, "beta_constraint": null, "moving_mean_initializer": {"config": {}, "class_name": "Zeros"}, "name": "res2_batchnorm1", "scale": true, "gamma_constraint": null, "moving_variance_initializer": {"config": {}, "class_name": "Ones"}}, "class_name": "BatchNormalization"}, {"inbound_nodes": [[["res2_batchnorm1", 0, 0, {}]]], "name": "res2_relu1", "config": {"activation": "relu", "trainable": true, "name": "res2_relu1"}, "class_name": "Activation"}, {"inbound_nodes": [[["res2_relu1", 0, 0, {}]]], "name": "res2_conv2-3-256", "config": {"kernel_size": [3, 3], "bias_initializer": {"config": {}, "class_name": "Zeros"}, "data_format": "channels_first", "filters": 256, "trainable": true, "kernel_constraint": null, "bias_constraint": null, "strides": [1, 1], "bias_regularizer": null, "dilation_rate": [1, 1], "activity_regularizer": null, "activation": "linear", "kernel_regularizer": {"config": {"l2": 9.999999747378752e-05, "l1": 0.0}, "class_name": "L1L2"}, "use_bias": false, "padding": "same", "name": "res2_conv2-3-256", "kernel_initializer": {"config": {"seed": null, "mode": "fan_avg", "scale": 1.0, "distribution": "uniform"}, "class_name": "VarianceScaling"}}, "class_name": "Conv2D"}, {"inbound_nodes": [[["res2_conv2-3-256", 0, 0, {}]]], "name": "res2_batchnorm2", "config": {"gamma_initializer": {"config": {}, "class_name": "Ones"}, "epsilon": 0.001, "center": true, "axis": 1, "trainable": true, "beta_initializer": {"config": {}, "class_name": "Zeros"}, "momentum": 0.99, "gamma_regularizer": null, "beta_regularizer": null, "beta_constraint": null, "moving_mean_initializer": {"config": {}, "class_name": "Zeros"}, "name": "res2_batchnorm2", "scale": true, "gamma_constraint": null, "moving_variance_initializer": {"config": {}, "class_name": "Ones"}}, "class_name": "BatchNormalization"}, {"inbound_nodes": [[["res1_relu2", 0, 0, {}], ["res2_batchnorm2", 0, 0, {}]]], "name": "res2_add", "config": {"trainable": true, "name": "res2_add"}, "class_name": "Add"}, {"inbound_nodes": [[["res2_add", 0, 0, {}]]], "name": "res2_relu2", "config": {"activation": "relu", "trainable": true, "name": "res2_relu2"}, "class_name": "Activation"}, {"inbound_nodes": [[["res2_relu2", 0, 0, {}]]], "name": "res3_conv1-3-256", "config": {"kernel_size": [3, 3], "bias_initializer": {"config": {}, "class_name": "Zeros"}, "data_format": "channels_first", "filters": 256, "trainable": true, "kernel_constraint": null, "bias_constraint": null, "strides": [1, 1], "bias_regularizer": null, "dilation_rate": [1, 1], "activity_regularizer": null, "activation": "linear", "kernel_regularizer": {"config": {"l2": 9.999999747378752e-05, "l1": 0.0}, "class_name": "L1L2"}, "use_bias": false, "padding": "same", "name": "res3_conv1-3-256", "kernel_initializer": {"config": {"seed": null, "mode": "fan_avg", "scale": 1.0, "distribution": "uniform"}, "class_name": "VarianceScaling"}}, "class_name": "Conv2D"}, {"inbound_nodes": [[["res3_conv1-3-256", 0, 0, {}]]], "name": "res3_batchnorm1", "config": {"gamma_initializer": {"config": {}, "class_name": "Ones"}, "epsilon": 0.001, "center": true, "axis": 1, "trainable": true, "beta_initializer": {"config": {}, "class_name": "Zeros"}, "momentum": 0.99, "gamma_regularizer": null, "beta_regularizer": null, "beta_constraint": null, "moving_mean_initializer": {"config": {}, "class_name": "Zeros"}, "name": "res3_batchnorm1", "scale": true, "gamma_constraint": null, "moving_variance_initializer": {"config": {}, "class_name": "Ones"}}, "class_name": "BatchNormalization"}, {"inbound_nodes": [[["res3_batchnorm1", 0, 0, {}]]], "name": "res3_relu1", "config": {"activation": "relu", "trainable": true, "name": "res3_relu1"}, "class_name": "Activation"}, {"inbound_nodes": [[["res3_relu1", 0, 0, {}]]], "name": "res3_conv2-3-256", "config": {"kernel_size": [3, 3], "bias_initializer": {"config": {}, "class_name": "Zeros"}, "data_format": "channels_first", "filters": 256, "trainable": true, "kernel_constraint": null, "bias_constraint": null, "strides": [1, 1], "bias_regularizer": null, "dilation_rate": [1, 1], "activity_regularizer": null, "activation": "linear", "kernel_regularizer": {"config": {"l2": 9.999999747378752e-05, "l1": 0.0}, "class_name": "L1L2"}, "use_bias": false, "padding": "same", "name": "res3_conv2-3-256", "kernel_initializer": {"config": {"seed": null, "mode": "fan_avg", "scale": 1.0, "distribution": "uniform"}, "class_name": "VarianceScaling"}}, "class_name": "Conv2D"}, {"inbound_nodes": [[["res3_conv2-3-256", 0, 0, {}]]], "name": "res3_batchnorm2", "config": {"gamma_initializer": {"config": {}, "class_name": "Ones"}, "epsilon": 0.001, "center": true, "axis": 1, "trainable": true, "beta_initializer": {"config": {}, "class_name": "Zeros"}, "momentum": 0.99, "gamma_regularizer": null, "beta_regularizer": null, "beta_constraint": null, "moving_mean_initializer": {"config": {}, "class_name": "Zeros"}, "name": "res3_batchnorm2", "scale": true, "gamma_constraint": null, "moving_variance_initializer": {"config": {}, "class_name": "Ones"}}, "class_name": "BatchNormalization"}, {"inbound_nodes": [[["res2_relu2", 0, 0, {}], ["res3_batchnorm2", 0, 0, {}]]], "name": "res3_add", "config": {"trainable": true, "name": "res3_add"}, "class_name": "Add"}, {"inbound_nodes": [[["res3_add", 0, 0, {}]]], "name": "res3_relu2", "config": {"activation": "relu", "trainable": true, "name": "res3_relu2"}, "class_name": "Activation"}, {"inbound_nodes": [[["res3_relu2", 0, 0, {}]]], "name": "res4_conv1-3-256", "config": {"kernel_size": [3, 3], "bias_initializer": {"config": {}, "class_name": "Zeros"}, "data_format": "channels_first", "filters": 256, "trainable": true, "kernel_constraint": null, "bias_constraint": null, "strides": [1, 1], "bias_regularizer": null, "dilation_rate": [1, 1], "activity_regularizer": null, "activation": "linear", "kernel_regularizer": {"config": {"l2": 9.999999747378752e-05, "l1": 0.0}, "class_name": "L1L2"}, "use_bias": false, "padding": "same", "name": "res4_conv1-3-256", "kernel_initializer": {"config": {"seed": null, "mode": "fan_avg", "scale": 1.0, "distribution": "uniform"}, "class_name": "VarianceScaling"}}, "class_name": "Conv2D"}, {"inbound_nodes": [[["res4_conv1-3-256", 0, 0, {}]]], "name": "res4_batchnorm1", "config": {"gamma_initializer": {"config": {}, "class_name": "Ones"}, "epsilon": 0.001, "center": true, "axis": 1, "trainable": true, "beta_initializer": {"config": {}, "class_name": "Zeros"}, "momentum": 0.99, "gamma_regularizer": null, "beta_regularizer": null, "beta_constraint": null, "moving_mean_initializer": {"config": {}, "class_name": "Zeros"}, "name": "res4_batchnorm1", "scale": true, "gamma_constraint": null, "moving_variance_initializer": {"config": {}, "class_name": "Ones"}}, "class_name": "BatchNormalization"}, {"inbound_nodes": [[["res4_batchnorm1", 0, 0, {}]]], "name": "res4_relu1", "config": {"activation": "relu", "trainable": true, "name": "res4_relu1"}, "class_name": "Activation"}, {"inbound_nodes": [[["res4_relu1", 0, 0, {}]]], "name": "res4_conv2-3-256", "config": {"kernel_size": [3, 3], "bias_initializer": {"config": {}, "class_name": "Zeros"}, "data_format": "channels_first", "filters": 256, "trainable": true, "kernel_constraint": null, "bias_constraint": null, "strides": [1, 1], "bias_regularizer": null, "dilation_rate": [1, 1], "activity_regularizer": null, "activation": "linear", "kernel_regularizer": {"config": {"l2": 9.999999747378752e-05, "l1": 0.0}, "class_name": "L1L2"}, "use_bias": false, "padding": "same", "name": "res4_conv2-3-256", "kernel_initializer": {"config": {"seed": null, "mode": "fan_avg", "scale": 1.0, "distribution": "uniform"}, "class_name": "VarianceScaling"}}, "class_name": "Conv2D"}, {"inbound_nodes": [[["res4_conv2-3-256", 0, 0, {}]]], "name": "res4_batchnorm2", "config": {"gamma_initializer": {"config": {}, "class_name": "Ones"}, "epsilon": 0.001, "center": true, "axis": 1, "trainable": true, "beta_initializer": {"config": {}, "class_name": "Zeros"}, "momentum": 0.99, "gamma_regularizer": null, "beta_regularizer": null, "beta_constraint": null, "moving_mean_initializer": {"config": {}, "class_name": "Zeros"}, "name": "res4_batchnorm2", "scale": true, "gamma_constraint": null, "moving_variance_initializer": {"config": {}, "class_name": "Ones"}}, "class_name": "BatchNormalization"}, {"inbound_nodes": [[["res3_relu2", 0, 0, {}], ["res4_batchnorm2", 0, 0, {}]]], "name": "res4_add", "config": {"trainable": true, "name": "res4_add"}, "class_name": "Add"}, {"inbound_nodes": [[["res4_add", 0, 0, {}]]], "name": "res4_relu2", "config": {"activation": "relu", "trainable": true, "name": "res4_relu2"}, "class_name": "Activation"}, {"inbound_nodes": [[["res4_relu2", 0, 0, {}]]], "name": "res5_conv1-3-256", "config": {"kernel_size": [3, 3], "bias_initializer": {"config": {}, "class_name": "Zeros"}, "data_format": "channels_first", "filters": 256, "trainable": true, "kernel_constraint": null, "bias_constraint": null, "strides": [1, 1], "bias_regularizer": null, "dilation_rate": [1, 1], "activity_regularizer": null, "activation": "linear", "kernel_regularizer": {"config": {"l2": 9.999999747378752e-05, "l1": 0.0}, "class_name": "L1L2"}, "use_bias": false, "padding": "same", "name": "res5_conv1-3-256", "kernel_initializer": {"config": {"seed": null, "mode": "fan_avg", "scale": 1.0, "distribution": "uniform"}, "class_name": "VarianceScaling"}}, "class_name": "Conv2D"}, {"inbound_nodes": [[["res5_conv1-3-256", 0, 0, {}]]], "name": "res5_batchnorm1", "config": {"gamma_initializer": {"config": {}, "class_name": "Ones"}, "epsilon": 0.001, "center": true, "axis": 1, "trainable": true, "beta_initializer": {"config": {}, "class_name": "Zeros"}, "momentum": 0.99, "gamma_regularizer": null, "beta_regularizer": null, "beta_constraint": null, "moving_mean_initializer": {"config": {}, "class_name": "Zeros"}, "name": "res5_batchnorm1", "scale": true, "gamma_constraint": null, "moving_variance_initializer": {"config": {}, "class_name": "Ones"}}, "class_name": "BatchNormalization"}, {"inbound_nodes": [[["res5_batchnorm1", 0, 0, {}]]], "name": "res5_relu1", "config": {"activation": "relu", "trainable": true, "name": "res5_relu1"}, "class_name": "Activation"}, {"inbound_nodes": [[["res5_relu1", 0, 0, {}]]], "name": "res5_conv2-3-256", "config": {"kernel_size": [3, 3], "bias_initializer": {"config": {}, "class_name": "Zeros"}, "data_format": "channels_first", "filters": 256, "trainable": true, "kernel_constraint": null, "bias_constraint": null, "strides": [1, 1], "bias_regularizer": null, "dilation_rate": [1, 1], "activity_regularizer": null, "activation": "linear", "kernel_regularizer": {"config": {"l2": 9.999999747378752e-05, "l1": 0.0}, "class_name": "L1L2"}, "use_bias": false, "padding": "same", "name": "res5_conv2-3-256", "kernel_initializer": {"config": {"seed": null, "mode": "fan_avg", "scale": 1.0, "distribution": "uniform"}, "class_name": "VarianceScaling"}}, "class_name": "Conv2D"}, {"inbound_nodes": [[["res5_conv2-3-256", 0, 0, {}]]], "name": "res5_batchnorm2", "config": {"gamma_initializer": {"config": {}, "class_name": "Ones"}, "epsilon": 0.001, "center": true, "axis": 1, "trainable": true, "beta_initializer": {"config": {}, "class_name": "Zeros"}, "momentum": 0.99, "gamma_regularizer": null, "beta_regularizer": null, "beta_constraint": null, "moving_mean_initializer": {"config": {}, "class_name": "Zeros"}, "name": "res5_batchnorm2", "scale": true, "gamma_constraint": null, "moving_variance_initializer": {"config": {}, "class_name": "Ones"}}, "class_name": "BatchNormalization"}, {"inbound_nodes": [[["res4_relu2", 0, 0, {}], ["res5_batchnorm2", 0, 0, {}]]], "name": "res5_add", "config": {"trainable": true, "name": "res5_add"}, "class_name": "Add"}, {"inbound_nodes": [[["res5_add", 0, 0, {}]]], "name": "res5_relu2", "config": {"activation": "relu", "trainable": true, "name": "res5_relu2"}, "class_name": "Activation"}, {"inbound_nodes": [[["res5_relu2", 0, 0, {}]]], "name": "res6_conv1-3-256", "config": {"kernel_size": [3, 3], "bias_initializer": {"config": {}, "class_name": "Zeros"}, "data_format": "channels_first", "filters": 256, "trainable": true, "kernel_constraint": null, "bias_constraint": null, "strides": [1, 1], "bias_regularizer": null, "dilation_rate": [1, 1], "activity_regularizer": null, "activation": "linear", "kernel_regularizer": {"config": {"l2": 9.999999747378752e-05, "l1": 0.0}, "class_name": "L1L2"}, "use_bias": false, "padding": "same", "name": "res6_conv1-3-256", "kernel_initializer": {"config": {"seed": null, "mode": "fan_avg", "scale": 1.0, "distribution": "uniform"}, "class_name": "VarianceScaling"}}, "class_name": "Conv2D"}, {"inbound_nodes": [[["res6_conv1-3-256", 0, 0, {}]]], "name": "res6_batchnorm1", "config": {"gamma_initializer": {"config": {}, "class_name": "Ones"}, "epsilon": 0.001, "center": true, "axis": 1, "trainable": true, "beta_initializer": {"config": {}, "class_name": "Zeros"}, "momentum": 0.99, "gamma_regularizer": null, "beta_regularizer": null, "beta_constraint": null, "moving_mean_initializer": {"config": {}, "class_name": "Zeros"}, "name": "res6_batchnorm1", "scale": true, "gamma_constraint": null, "moving_variance_initializer": {"config": {}, "class_name": "Ones"}}, "class_name": "BatchNormalization"}, {"inbound_nodes": [[["res6_batchnorm1", 0, 0, {}]]], "name": "res6_relu1", "config": {"activation": "relu", "trainable": true, "name": "res6_relu1"}, "class_name": "Activation"}, {"inbound_nodes": [[["res6_relu1", 0, 0, {}]]], "name": "res6_conv2-3-256", "config": {"kernel_size": [3, 3], "bias_initializer": {"config": {}, "class_name": "Zeros"}, "data_format": "channels_first", "filters": 256, "trainable": true, "kernel_constraint": null, "bias_constraint": null, "strides": [1, 1], "bias_regularizer": null, "dilation_rate": [1, 1], "activity_regularizer": null, "activation": "linear", "kernel_regularizer": {"config": {"l2": 9.999999747378752e-05, "l1": 0.0}, "class_name": "L1L2"}, "use_bias": false, "padding": "same", "name": "res6_conv2-3-256", "kernel_initializer": {"config": {"seed": null, "mode": "fan_avg", "scale": 1.0, "distribution": "uniform"}, "class_name": "VarianceScaling"}}, "class_name": "Conv2D"}, {"inbound_nodes": [[["res6_conv2-3-256", 0, 0, {}]]], "name": "res6_batchnorm2", "config": {"gamma_initializer": {"config": {}, "class_name": "Ones"}, "epsilon": 0.001, "center": true, "axis": 1, "trainable": true, "beta_initializer": {"config": {}, "class_name": "Zeros"}, "momentum": 0.99, "gamma_regularizer": null, "beta_regularizer": null, "beta_constraint": null, "moving_mean_initializer": {"config": {}, "class_name": "Zeros"}, "name": "res6_batchnorm2", "scale": true, "gamma_constraint": null, "moving_variance_initializer": {"config": {}, "class_name": "Ones"}}, "class_name": "BatchNormalization"}, {"inbound_nodes": [[["res5_relu2", 0, 0, {}], ["res6_batchnorm2", 0, 0, {}]]], "name": "res6_add", "config": {"trainable": true, "name": "res6_add"}, "class_name": "Add"}, {"inbound_nodes": [[["res6_add", 0, 0, {}]]], "name": "res6_relu2", "config": {"activation": "relu", "trainable": true, "name": "res6_relu2"}, "class_name": "Activation"}, {"inbound_nodes": [[["res6_relu2", 0, 0, {}]]], "name": "res7_conv1-3-256", "config": {"kernel_size": [3, 3], "bias_initializer": {"config": {}, "class_name": "Zeros"}, "data_format": "channels_first", "filters": 256, "trainable": true, "kernel_constraint": null, "bias_constraint": null, "strides": [1, 1], "bias_regularizer": null, "dilation_rate": [1, 1], "activity_regularizer": null, "activation": "linear", "kernel_regularizer": {"config": {"l2": 9.999999747378752e-05, "l1": 0.0}, "class_name": "L1L2"}, "use_bias": false, "padding": "same", "name": "res7_conv1-3-256", "kernel_initializer": {"config": {"seed": null, "mode": "fan_avg", "scale": 1.0, "distribution": "uniform"}, "class_name": "VarianceScaling"}}, "class_name": "Conv2D"}, {"inbound_nodes": [[["res7_conv1-3-256", 0, 0, {}]]], "name": "res7_batchnorm1", "config": {"gamma_initializer": {"config": {}, "class_name": "Ones"}, "epsilon": 0.001, "center": true, "axis": 1, "trainable": true, "beta_initializer": {"config": {}, "class_name": "Zeros"}, "momentum": 0.99, "gamma_regularizer": null, "beta_regularizer": null, "beta_constraint": null, "moving_mean_initializer": {"config": {}, "class_name": "Zeros"}, "name": "res7_batchnorm1", "scale": true, "gamma_constraint": null, "moving_variance_initializer": {"config": {}, "class_name": "Ones"}}, "class_name": "BatchNormalization"}, {"inbound_nodes": [[["res7_batchnorm1", 0, 0, {}]]], "name": "res7_relu1", "config": {"activation": "relu", "trainable": true, "name": "res7_relu1"}, "class_name": "Activation"}, {"inbound_nodes": [[["res7_relu1", 0, 0, {}]]], "name": "res7_conv2-3-256", "config": {"kernel_size": [3, 3], "bias_initializer": {"config": {}, "class_name": "Zeros"}, "data_format": "channels_first", "filters": 256, "trainable": true, "kernel_constraint": null, "bias_constraint": null, "strides": [1, 1], "bias_regularizer": null, "dilation_rate": [1, 1], "activity_regularizer": null, "activation": "linear", "kernel_regularizer": {"config": {"l2": 9.999999747378752e-05, "l1": 0.0}, "class_name": "L1L2"}, "use_bias": false, "padding": "same", "name": "res7_conv2-3-256", "kernel_initializer": {"config": {"seed": null, "mode": "fan_avg", "scale": 1.0, "distribution": "uniform"}, "class_name": "VarianceScaling"}}, "class_name": "Conv2D"}, {"inbound_nodes": [[["res7_conv2-3-256", 0, 0, {}]]], "name": "res7_batchnorm2", "config": {"gamma_initializer": {"config": {}, "class_name": "Ones"}, "epsilon": 0.001, "center": true, "axis": 1, "trainable": true, "beta_initializer": {"config": {}, "class_name": "Zeros"}, "momentum": 0.99, "gamma_regularizer": null, "beta_regularizer": null, "beta_constraint": null, "moving_mean_initializer": {"config": {}, "class_name": "Zeros"}, "name": "res7_batchnorm2", "scale": true, "gamma_constraint": null, "moving_variance_initializer": {"config": {}, "class_name": "Ones"}}, "class_name": "BatchNormalization"}, {"inbound_nodes": [[["res6_relu2", 0, 0, {}], ["res7_batchnorm2", 0, 0, {}]]], "name": "res7_add", "config": {"trainable": true, "name": "res7_add"}, "class_name": "Add"}, {"inbound_nodes": [[["res7_add", 0, 0, {}]]], "name": "res7_relu2", "config": {"activation": "relu", "trainable": true, "name": "res7_relu2"}, "class_name": "Activation"}, {"inbound_nodes": [[["res7_relu2", 0, 0, {}]]], "name": "value_conv-1-4", "config": {"kernel_size": [1, 1], "bias_initializer": {"config": {}, "class_name": "Zeros"}, "data_format": "channels_first", "filters": 4, "trainable": true, "kernel_constraint": null, "bias_constraint": null, "strides": [1, 1], "bias_regularizer": null, "dilation_rate": [1, 1], "activity_regularizer": null, "activation": "linear", "kernel_regularizer": {"config": {"l2": 9.999999747378752e-05, "l1": 0.0}, "class_name": "L1L2"}, "use_bias": false, "padding": "valid", "name": "value_conv-1-4", "kernel_initializer": {"config": {"seed": null, "mode": "fan_avg", "scale": 1.0, "distribution": "uniform"}, "class_name": "VarianceScaling"}}, "class_name": "Conv2D"}, {"inbound_nodes": [[["res7_relu2", 0, 0, {}]]], "name": "policy_conv-1-2", "config": {"kernel_size": [1, 1], "bias_initializer": {"config": {}, "class_name": "Zeros"}, "data_format": "channels_first", "filters": 2, "trainable": true, "kernel_constraint": null, "bias_constraint": null, "strides": [1, 1], "bias_regularizer": null, "dilation_rate": [1, 1], "activity_regularizer": null, "activation": "linear", "kernel_regularizer": {"config": {"l2": 9.999999747378752e-05, "l1": 0.0}, "class_name": "L1L2"}, "use_bias": false, "padding": "valid", "name": "policy_conv-1-2", "kernel_initializer": {"config": {"seed": null, "mode": "fan_avg", "scale": 1.0, "distribution": "uniform"}, "class_name": "VarianceScaling"}}, "class_name": "Conv2D"}, {"inbound_nodes": [[["value_conv-1-4", 0, 0, {}]]], "name": "value_batchnorm", "config": {"gamma_initializer": {"config": {}, "class_name": "Ones"}, "epsilon": 0.001, "center": true, "axis": 1, "trainable": true, "beta_initializer": {"config": {}, "class_name": "Zeros"}, "momentum": 0.99, "gamma_regularizer": null, "beta_regularizer": null, "beta_constraint": null, "moving_mean_initializer": {"config": {}, "class_name": "Zeros"}, "name": "value_batchnorm", "scale": true, "gamma_constraint": null, "moving_variance_initializer": {"config": {}, "class_name": "Ones"}}, "class_name": "BatchNormalization"}, {"inbound_nodes": [[["policy_conv-1-2", 0, 0, {}]]], "name": "policy_batchnorm", "config": {"gamma_initializer": {"config": {}, "class_name": "Ones"}, "epsilon": 0.001, "center": true, "axis": 1, "trainable": true, "beta_initializer": {"config": {}, "class_name": "Zeros"}, "momentum": 0.99, "gamma_regularizer": null, "beta_regularizer": null, "beta_constraint": null, "moving_mean_initializer": {"config": {}, "class_name": "Zeros"}, "name": "policy_batchnorm", "scale": true, "gamma_constraint": null, "moving_variance_initializer": {"config": {}, "class_name": "Ones"}}, "class_name": "BatchNormalization"}, {"inbound_nodes": [[["value_batchnorm", 0, 0, {}]]], "name": "value_relu", "config": {"activation": "relu", "trainable": true, "name": "value_relu"}, "class_name": "Activation"}, {"inbound_nodes": [[["policy_batchnorm", 0, 0, {}]]], "name": "policy_relu", "config": {"activation": "relu", "trainable": true, "name": "policy_relu"}, "class_name": "Activation"}, {"inbound_nodes": [[["value_relu", 0, 0, {}]]], "name": "value_flatten", "config": {"trainable": true, "name": "value_flatten"}, "class_name": "Flatten"}, {"inbound_nodes": [[["policy_relu", 0, 0, {}]]], "name": "policy_flatten", "config": {"trainable": true, "name": "policy_flatten"}, "class_name": "Flatten"}, {"inbound_nodes": [[["value_flatten", 0, 0, {}]]], "name": "value_dense", "config": {"bias_constraint": null, "bias_initializer": {"config": {}, "class_name": "Zeros"}, "activation": "relu", "trainable": true, "activity_regularizer": null, "kernel_constraint": null, "bias_regularizer": null, "kernel_regularizer": {"config": {"l2": 9.999999747378752e-05, "l1": 0.0}, "class_name": "L1L2"}, "units": 256, "kernel_initializer": {"config": {"seed": null, "mode": "fan_avg", "scale": 1.0, "distribution": "uniform"}, "class_name": "VarianceScaling"}, "name": "value_dense", "use_bias": true}, "class_name": "Dense"}, {"inbound_nodes": [[["policy_flatten", 0, 0, {}]]], "name": "policy_out", "config": {"bias_constraint": null, "bias_initializer": {"config": {}, "class_name": "Zeros"}, "activation": "softmax", "trainable": true, "activity_regularizer": null, "kernel_constraint": null, "bias_regularizer": null, "kernel_regularizer": {"config": {"l2": 9.999999747378752e-05, "l1": 0.0}, "class_name": "L1L2"}, "units": 2086, "kernel_initializer": {"config": {"seed": null, "mode": "fan_avg", "scale": 1.0, "distribution": "uniform"}, "class_name": "VarianceScaling"}, "name": "policy_out", "use_bias": true}, "class_name": "Dense"}, {"inbound_nodes": [[["value_dense", 0, 0, {}]]], "name": "value_out", "config": {"bias_constraint": null, "bias_initializer": {"config": {}, "class_name": "Zeros"}, "activation": "tanh", "trainable": true, "activity_regularizer": null, "kernel_constraint": null, "bias_regularizer": null, "kernel_regularizer": {"config": {"l2": 9.999999747378752e-05, "l1": 0.0}, "class_name": "L1L2"}, "units": 1, "kernel_initializer": {"config": {"seed": null, "mode": "fan_avg", "scale": 1.0, "distribution": "uniform"}, "class_name": "VarianceScaling"}, "name": "value_out", "use_bias": true}, "class_name": "Dense"}], "name": "chess_model"}